{"format": "graph-model", "generatedBy": "2.19.0", "convertedBy": "TensorFlow.js Converter v4.22.0", "signature": {"inputs": {"input_layer_3": {"name": "input_layer_3:0", "dtype": "DT_FLOAT", "tensorShape": {"dim": [{"size": "-1"}, {"size": "224"}, {"size": "224"}, {"size": "3"}]}}}, "outputs": {"output_0": {"name": "Identity:0", "dtype": "DT_FLOAT", "tensorShape": {"dim": [{"size": "-1"}, {"size": "1"}]}}}}, "modelTopology": {"node": [{"name": "ConstantFolding/StatefulPartitionedCall/functional_1_1/MobileNetV3Small_1/activation_35_1/truediv_recip", "op": "Const", "attr": {"value": {"tensor": {"dtype": "DT_FLOAT", "tensorShape": {}}}, "dtype": {"type": "DT_FLOAT"}}}, {"name": "StatefulPartitionedCall/functional_1_1/MobileNetV3Small_1/expanded_conv_10_project_bn_1/batchnorm/sub", "op": "Const", "attr": {"value": {"tensor": {"dtype": "DT_FLOAT", "tensorShape": {"dim": [{"size": "96"}]}}}, "dtype": {"type": "DT_FLOAT"}}}, {"name": "StatefulPartitionedCall/functional_1_1/MobileNetV3Small_1/Const_17", "op": "Const", "attr": {"value": {"tensor": {"dtype": "DT_FLOAT", "tensorShape": {}}}, "dtype": {"type": "DT_FLOAT"}}}, {"name": "StatefulPartitionedCall/functional_1_1/MobileNetV3Small_1/expanded_conv_10_squeeze_excite_avg_pool_1/Mean/reduction_indices", "op": "Const", "attr": {"value": {"tensor": {"dtype": "DT_INT32", "tensorShape": {"dim": [{"size": "2"}]}}}, "dtype": {"type": "DT_INT32"}}}, {"name": "StatefulPartitionedCall/functional_1_1/MobileNetV3Small_1/expanded_conv_10_squeeze_excite_conv_1/convolution/ReadVariableOp", "op": "Const", "attr": {"value": {"tensor": {"dtype": "DT_FLOAT", "tensorShape": {"dim": [{"size": "1"}, {"size": "1"}, {"size": "576"}, {"size": "144"}]}}}, "dtype": {"type": "DT_FLOAT"}}}, {"name": "StatefulPartitionedCall/functional_1_1/MobileNetV3Small_1/expanded_conv_10_squeeze_excite_conv_1/Squeeze", "op": "Const", "attr": {"value": {"tensor": {"dtype": "DT_FLOAT", "tensorShape": {"dim": [{"size": "144"}]}}}, "dtype": {"type": "DT_FLOAT"}}}, {"name": "StatefulPartitionedCall/functional_1_1/MobileNetV3Small_1/expanded_conv_10_squeeze_excite_conv_1_2/convolution/ReadVariableOp", "op": "Const", "attr": {"value": {"tensor": {"dtype": "DT_FLOAT", "tensorShape": {"dim": [{"size": "1"}, {"size": "1"}, {"size": "144"}, {"size": "576"}]}}}, "dtype": {"type": "DT_FLOAT"}}}, {"name": "StatefulPartitionedCall/functional_1_1/MobileNetV3Small_1/expanded_conv_10_squeeze_excite_conv_1_2/Squeeze", "op": "Const", "attr": {"value": {"tensor": {"dtype": "DT_FLOAT", "tensorShape": {"dim": [{"size": "576"}]}}}, "dtype": {"type": "DT_FLOAT"}}}, {"name": "StatefulPartitionedCall/functional_1_1/MobileNetV3Small_1/Const_16", "op": "Const", "attr": {"value": {"tensor": {"dtype": "DT_FLOAT", "tensorShape": {}}}, "dtype": {"type": "DT_FLOAT"}}}, {"name": "ConstantFolding/StatefulPartitionedCall/functional_1_1/MobileNetV3Small_1/activation_34_1/truediv_recip", "op": "Const", "attr": {"value": {"tensor": {"dtype": "DT_FLOAT", "tensorShape": {}}}, "dtype": {"type": "DT_FLOAT"}}}, {"name": "ConstantFolding/StatefulPartitionedCall/functional_1_1/MobileNetV3Small_1/activation_33_1/truediv_recip", "op": "Const", "attr": {"value": {"tensor": {"dtype": "DT_FLOAT", "tensorShape": {}}}, "dtype": {"type": "DT_FLOAT"}}}, {"name": "StatefulPartitionedCall/functional_1_1/MobileNetV3Small_1/expanded_conv_9_project_bn_1/batchnorm/sub", "op": "Const", "attr": {"value": {"tensor": {"dtype": "DT_FLOAT", "tensorShape": {"dim": [{"size": "96"}]}}}, "dtype": {"type": "DT_FLOAT"}}}, {"name": "StatefulPartitionedCall/functional_1_1/MobileNetV3Small_1/Const_15", "op": "Const", "attr": {"value": {"tensor": {"dtype": "DT_FLOAT", "tensorShape": {}}}, "dtype": {"type": "DT_FLOAT"}}}, {"name": "StatefulPartitionedCall/functional_1_1/MobileNetV3Small_1/expanded_conv_9_squeeze_excite_avg_pool_1/Mean/reduction_indices", "op": "Const", "attr": {"value": {"tensor": {"dtype": "DT_INT32", "tensorShape": {"dim": [{"size": "2"}]}}}, "dtype": {"type": "DT_INT32"}}}, {"name": "StatefulPartitionedCall/functional_1_1/MobileNetV3Small_1/expanded_conv_9_squeeze_excite_conv_1/convolution/ReadVariableOp", "op": "Const", "attr": {"value": {"tensor": {"dtype": "DT_FLOAT", "tensorShape": {"dim": [{"size": "1"}, {"size": "1"}, {"size": "576"}, {"size": "144"}]}}}, "dtype": {"type": "DT_FLOAT"}}}, {"name": "StatefulPartitionedCall/functional_1_1/MobileNetV3Small_1/expanded_conv_9_squeeze_excite_conv_1/Squeeze", "op": "Const", "attr": {"value": {"tensor": {"dtype": "DT_FLOAT", "tensorShape": {"dim": [{"size": "144"}]}}}, "dtype": {"type": "DT_FLOAT"}}}, {"name": "StatefulPartitionedCall/functional_1_1/MobileNetV3Small_1/expanded_conv_9_squeeze_excite_conv_1_2/convolution/ReadVariableOp", "op": "Const", "attr": {"value": {"tensor": {"dtype": "DT_FLOAT", "tensorShape": {"dim": [{"size": "1"}, {"size": "1"}, {"size": "144"}, {"size": "576"}]}}}, "dtype": {"type": "DT_FLOAT"}}}, {"name": "StatefulPartitionedCall/functional_1_1/MobileNetV3Small_1/expanded_conv_9_squeeze_excite_conv_1_2/Squeeze", "op": "Const", "attr": {"value": {"tensor": {"dtype": "DT_FLOAT", "tensorShape": {"dim": [{"size": "576"}]}}}, "dtype": {"type": "DT_FLOAT"}}}, {"name": "StatefulPartitionedCall/functional_1_1/MobileNetV3Small_1/Const_14", "op": "Const", "attr": {"value": {"tensor": {"dtype": "DT_FLOAT", "tensorShape": {}}}, "dtype": {"type": "DT_FLOAT"}}}, {"name": "ConstantFolding/StatefulPartitionedCall/functional_1_1/MobileNetV3Small_1/activation_32_1/truediv_recip", "op": "Const", "attr": {"value": {"tensor": {"dtype": "DT_FLOAT", "tensorShape": {}}}, "dtype": {"type": "DT_FLOAT"}}}, {"name": "ConstantFolding/StatefulPartitionedCall/functional_1_1/MobileNetV3Small_1/activation_31_1/truediv_recip", "op": "Const", "attr": {"value": {"tensor": {"dtype": "DT_FLOAT", "tensorShape": {}}}, "dtype": {"type": "DT_FLOAT"}}}, {"name": "StatefulPartitionedCall/functional_1_1/MobileNetV3Small_1/Const_13", "op": "Const", "attr": {"value": {"tensor": {"dtype": "DT_FLOAT", "tensorShape": {}}}, "dtype": {"type": "DT_FLOAT"}}}, {"name": "StatefulPartitionedCall/functional_1_1/MobileNetV3Small_1/expanded_conv_8_squeeze_excite_avg_pool_1/Mean/reduction_indices", "op": "Const", "attr": {"value": {"tensor": {"dtype": "DT_INT32", "tensorShape": {"dim": [{"size": "2"}]}}}, "dtype": {"type": "DT_INT32"}}}, {"name": "StatefulPartitionedCall/functional_1_1/MobileNetV3Small_1/expanded_conv_8_squeeze_excite_conv_1/convolution/ReadVariableOp", "op": "Const", "attr": {"value": {"tensor": {"dtype": "DT_FLOAT", "tensorShape": {"dim": [{"size": "1"}, {"size": "1"}, {"size": "288"}, {"size": "72"}]}}}, "dtype": {"type": "DT_FLOAT"}}}, {"name": "StatefulPartitionedCall/functional_1_1/MobileNetV3Small_1/expanded_conv_8_squeeze_excite_conv_1/Squeeze", "op": "Const", "attr": {"value": {"tensor": {"dtype": "DT_FLOAT", "tensorShape": {"dim": [{"size": "72"}]}}}, "dtype": {"type": "DT_FLOAT"}}}, {"name": "StatefulPartitionedCall/functional_1_1/MobileNetV3Small_1/expanded_conv_8_squeeze_excite_conv_1_2/convolution/ReadVariableOp", "op": "Const", "attr": {"value": {"tensor": {"dtype": "DT_FLOAT", "tensorShape": {"dim": [{"size": "1"}, {"size": "1"}, {"size": "72"}, {"size": "288"}]}}}, "dtype": {"type": "DT_FLOAT"}}}, {"name": "StatefulPartitionedCall/functional_1_1/MobileNetV3Small_1/expanded_conv_8_squeeze_excite_conv_1_2/Squeeze", "op": "Const", "attr": {"value": {"tensor": {"dtype": "DT_FLOAT", "tensorShape": {"dim": [{"size": "288"}]}}}, "dtype": {"type": "DT_FLOAT"}}}, {"name": "StatefulPartitionedCall/functional_1_1/MobileNetV3Small_1/Const_12", "op": "Const", "attr": {"value": {"tensor": {"dtype": "DT_FLOAT", "tensorShape": {}}}, "dtype": {"type": "DT_FLOAT"}}}, {"name": "ConstantFolding/StatefulPartitionedCall/functional_1_1/MobileNetV3Small_1/activation_30_1/truediv_recip", "op": "Const", "attr": {"value": {"tensor": {"dtype": "DT_FLOAT", "tensorShape": {}}}, "dtype": {"type": "DT_FLOAT"}}}, {"name": "ConstantFolding/StatefulPartitionedCall/functional_1_1/MobileNetV3Small_1/activation_29_1/truediv_recip", "op": "Const", "attr": {"value": {"tensor": {"dtype": "DT_FLOAT", "tensorShape": {}}}, "dtype": {"type": "DT_FLOAT"}}}, {"name": "StatefulPartitionedCall/functional_1_1/MobileNetV3Small_1/expanded_conv_7_project_bn_1/batchnorm/sub", "op": "Const", "attr": {"value": {"tensor": {"dtype": "DT_FLOAT", "tensorShape": {"dim": [{"size": "48"}]}}}, "dtype": {"type": "DT_FLOAT"}}}, {"name": "StatefulPartitionedCall/functional_1_1/MobileNetV3Small_1/Const_11", "op": "Const", "attr": {"value": {"tensor": {"dtype": "DT_FLOAT", "tensorShape": {}}}, "dtype": {"type": "DT_FLOAT"}}}, {"name": "StatefulPartitionedCall/functional_1_1/MobileNetV3Small_1/expanded_conv_7_squeeze_excite_avg_pool_1/Mean/reduction_indices", "op": "Const", "attr": {"value": {"tensor": {"dtype": "DT_INT32", "tensorShape": {"dim": [{"size": "2"}]}}}, "dtype": {"type": "DT_INT32"}}}, {"name": "StatefulPartitionedCall/functional_1_1/MobileNetV3Small_1/expanded_conv_7_squeeze_excite_conv_1/convolution/ReadVariableOp", "op": "Const", "attr": {"value": {"tensor": {"dtype": "DT_FLOAT", "tensorShape": {"dim": [{"size": "1"}, {"size": "1"}, {"size": "144"}, {"size": "40"}]}}}, "dtype": {"type": "DT_FLOAT"}}}, {"name": "StatefulPartitionedCall/functional_1_1/MobileNetV3Small_1/expanded_conv_7_squeeze_excite_conv_1/Squeeze", "op": "Const", "attr": {"value": {"tensor": {"dtype": "DT_FLOAT", "tensorShape": {"dim": [{"size": "40"}]}}}, "dtype": {"type": "DT_FLOAT"}}}, {"name": "StatefulPartitionedCall/functional_1_1/MobileNetV3Small_1/expanded_conv_7_squeeze_excite_conv_1_2/convolution/ReadVariableOp", "op": "Const", "attr": {"value": {"tensor": {"dtype": "DT_FLOAT", "tensorShape": {"dim": [{"size": "1"}, {"size": "1"}, {"size": "40"}, {"size": "144"}]}}}, "dtype": {"type": "DT_FLOAT"}}}, {"name": "StatefulPartitionedCall/functional_1_1/MobileNetV3Small_1/expanded_conv_7_squeeze_excite_conv_1_2/Squeeze", "op": "Const", "attr": {"value": {"tensor": {"dtype": "DT_FLOAT", "tensorShape": {"dim": [{"size": "144"}]}}}, "dtype": {"type": "DT_FLOAT"}}}, {"name": "StatefulPartitionedCall/functional_1_1/MobileNetV3Small_1/Const_10", "op": "Const", "attr": {"value": {"tensor": {"dtype": "DT_FLOAT", "tensorShape": {}}}, "dtype": {"type": "DT_FLOAT"}}}, {"name": "ConstantFolding/StatefulPartitionedCall/functional_1_1/MobileNetV3Small_1/activation_28_1/truediv_recip", "op": "Const", "attr": {"value": {"tensor": {"dtype": "DT_FLOAT", "tensorShape": {}}}, "dtype": {"type": "DT_FLOAT"}}}, {"name": "ConstantFolding/StatefulPartitionedCall/functional_1_1/MobileNetV3Small_1/activation_27_1/truediv_recip", "op": "Const", "attr": {"value": {"tensor": {"dtype": "DT_FLOAT", "tensorShape": {}}}, "dtype": {"type": "DT_FLOAT"}}}, {"name": "StatefulPartitionedCall/functional_1_1/MobileNetV3Small_1/Const_9", "op": "Const", "attr": {"value": {"tensor": {"dtype": "DT_FLOAT", "tensorShape": {}}}, "dtype": {"type": "DT_FLOAT"}}}, {"name": "StatefulPartitionedCall/functional_1_1/MobileNetV3Small_1/expanded_conv_6_squeeze_excite_avg_pool_1/Mean/reduction_indices", "op": "Const", "attr": {"value": {"tensor": {"dtype": "DT_INT32", "tensorShape": {"dim": [{"size": "2"}]}}}, "dtype": {"type": "DT_INT32"}}}, {"name": "StatefulPartitionedCall/functional_1_1/MobileNetV3Small_1/expanded_conv_6_squeeze_excite_conv_1/convolution/ReadVariableOp", "op": "Const", "attr": {"value": {"tensor": {"dtype": "DT_FLOAT", "tensorShape": {"dim": [{"size": "1"}, {"size": "1"}, {"size": "120"}, {"size": "32"}]}}}, "dtype": {"type": "DT_FLOAT"}}}, {"name": "StatefulPartitionedCall/functional_1_1/MobileNetV3Small_1/expanded_conv_6_squeeze_excite_conv_1/Squeeze", "op": "Const", "attr": {"value": {"tensor": {"dtype": "DT_FLOAT", "tensorShape": {"dim": [{"size": "32"}]}}}, "dtype": {"type": "DT_FLOAT"}}}, {"name": "StatefulPartitionedCall/functional_1_1/MobileNetV3Small_1/expanded_conv_6_squeeze_excite_conv_1_2/convolution/ReadVariableOp", "op": "Const", "attr": {"value": {"tensor": {"dtype": "DT_FLOAT", "tensorShape": {"dim": [{"size": "1"}, {"size": "1"}, {"size": "32"}, {"size": "120"}]}}}, "dtype": {"type": "DT_FLOAT"}}}, {"name": "StatefulPartitionedCall/functional_1_1/MobileNetV3Small_1/expanded_conv_6_squeeze_excite_conv_1_2/Squeeze", "op": "Const", "attr": {"value": {"tensor": {"dtype": "DT_FLOAT", "tensorShape": {"dim": [{"size": "120"}]}}}, "dtype": {"type": "DT_FLOAT"}}}, {"name": "StatefulPartitionedCall/functional_1_1/MobileNetV3Small_1/Const_8", "op": "Const", "attr": {"value": {"tensor": {"dtype": "DT_FLOAT", "tensorShape": {}}}, "dtype": {"type": "DT_FLOAT"}}}, {"name": "ConstantFolding/StatefulPartitionedCall/functional_1_1/MobileNetV3Small_1/activation_26_1/truediv_recip", "op": "Const", "attr": {"value": {"tensor": {"dtype": "DT_FLOAT", "tensorShape": {}}}, "dtype": {"type": "DT_FLOAT"}}}, {"name": "ConstantFolding/StatefulPartitionedCall/functional_1_1/MobileNetV3Small_1/activation_25_1/truediv_recip", "op": "Const", "attr": {"value": {"tensor": {"dtype": "DT_FLOAT", "tensorShape": {}}}, "dtype": {"type": "DT_FLOAT"}}}, {"name": "StatefulPartitionedCall/functional_1_1/MobileNetV3Small_1/expanded_conv_5_project_bn_1/batchnorm/sub", "op": "Const", "attr": {"value": {"tensor": {"dtype": "DT_FLOAT", "tensorShape": {"dim": [{"size": "40"}]}}}, "dtype": {"type": "DT_FLOAT"}}}, {"name": "StatefulPartitionedCall/functional_1_1/MobileNetV3Small_1/Const_7", "op": "Const", "attr": {"value": {"tensor": {"dtype": "DT_FLOAT", "tensorShape": {}}}, "dtype": {"type": "DT_FLOAT"}}}, {"name": "StatefulPartitionedCall/functional_1_1/MobileNetV3Small_1/expanded_conv_5_squeeze_excite_avg_pool_1/Mean/reduction_indices", "op": "Const", "attr": {"value": {"tensor": {"dtype": "DT_INT32", "tensorShape": {"dim": [{"size": "2"}]}}}, "dtype": {"type": "DT_INT32"}}}, {"name": "StatefulPartitionedCall/functional_1_1/MobileNetV3Small_1/expanded_conv_5_squeeze_excite_conv_1/convolution/ReadVariableOp", "op": "Const", "attr": {"value": {"tensor": {"dtype": "DT_FLOAT", "tensorShape": {"dim": [{"size": "1"}, {"size": "1"}, {"size": "240"}, {"size": "64"}]}}}, "dtype": {"type": "DT_FLOAT"}}}, {"name": "StatefulPartitionedCall/functional_1_1/MobileNetV3Small_1/expanded_conv_5_squeeze_excite_conv_1/Squeeze", "op": "Const", "attr": {"value": {"tensor": {"dtype": "DT_FLOAT", "tensorShape": {"dim": [{"size": "64"}]}}}, "dtype": {"type": "DT_FLOAT"}}}, {"name": "StatefulPartitionedCall/functional_1_1/MobileNetV3Small_1/expanded_conv_5_squeeze_excite_conv_1_2/convolution/ReadVariableOp", "op": "Const", "attr": {"value": {"tensor": {"dtype": "DT_FLOAT", "tensorShape": {"dim": [{"size": "1"}, {"size": "1"}, {"size": "64"}, {"size": "240"}]}}}, "dtype": {"type": "DT_FLOAT"}}}, {"name": "StatefulPartitionedCall/functional_1_1/MobileNetV3Small_1/expanded_conv_5_squeeze_excite_conv_1_2/Squeeze", "op": "Const", "attr": {"value": {"tensor": {"dtype": "DT_FLOAT", "tensorShape": {"dim": [{"size": "240"}]}}}, "dtype": {"type": "DT_FLOAT"}}}, {"name": "StatefulPartitionedCall/functional_1_1/MobileNetV3Small_1/Const_6", "op": "Const", "attr": {"value": {"tensor": {"dtype": "DT_FLOAT", "tensorShape": {}}}, "dtype": {"type": "DT_FLOAT"}}}, {"name": "ConstantFolding/StatefulPartitionedCall/functional_1_1/MobileNetV3Small_1/activation_24_1/truediv_recip", "op": "Const", "attr": {"value": {"tensor": {"dtype": "DT_FLOAT", "tensorShape": {}}}, "dtype": {"type": "DT_FLOAT"}}}, {"name": "ConstantFolding/StatefulPartitionedCall/functional_1_1/MobileNetV3Small_1/activation_23_1/truediv_recip", "op": "Const", "attr": {"value": {"tensor": {"dtype": "DT_FLOAT", "tensorShape": {}}}, "dtype": {"type": "DT_FLOAT"}}}, {"name": "StatefulPartitionedCall/functional_1_1/MobileNetV3Small_1/expanded_conv_4_project_bn_1/batchnorm/sub", "op": "Const", "attr": {"value": {"tensor": {"dtype": "DT_FLOAT", "tensorShape": {"dim": [{"size": "40"}]}}}, "dtype": {"type": "DT_FLOAT"}}}, {"name": "StatefulPartitionedCall/functional_1_1/MobileNetV3Small_1/Const_5", "op": "Const", "attr": {"value": {"tensor": {"dtype": "DT_FLOAT", "tensorShape": {}}}, "dtype": {"type": "DT_FLOAT"}}}, {"name": "StatefulPartitionedCall/functional_1_1/MobileNetV3Small_1/expanded_conv_4_squeeze_excite_avg_pool_1/Mean/reduction_indices", "op": "Const", "attr": {"value": {"tensor": {"dtype": "DT_INT32", "tensorShape": {"dim": [{"size": "2"}]}}}, "dtype": {"type": "DT_INT32"}}}, {"name": "StatefulPartitionedCall/functional_1_1/MobileNetV3Small_1/expanded_conv_4_squeeze_excite_conv_1/convolution/ReadVariableOp", "op": "Const", "attr": {"value": {"tensor": {"dtype": "DT_FLOAT", "tensorShape": {"dim": [{"size": "1"}, {"size": "1"}, {"size": "240"}, {"size": "64"}]}}}, "dtype": {"type": "DT_FLOAT"}}}, {"name": "StatefulPartitionedCall/functional_1_1/MobileNetV3Small_1/expanded_conv_4_squeeze_excite_conv_1/Squeeze", "op": "Const", "attr": {"value": {"tensor": {"dtype": "DT_FLOAT", "tensorShape": {"dim": [{"size": "64"}]}}}, "dtype": {"type": "DT_FLOAT"}}}, {"name": "StatefulPartitionedCall/functional_1_1/MobileNetV3Small_1/expanded_conv_4_squeeze_excite_conv_1_2/convolution/ReadVariableOp", "op": "Const", "attr": {"value": {"tensor": {"dtype": "DT_FLOAT", "tensorShape": {"dim": [{"size": "1"}, {"size": "1"}, {"size": "64"}, {"size": "240"}]}}}, "dtype": {"type": "DT_FLOAT"}}}, {"name": "StatefulPartitionedCall/functional_1_1/MobileNetV3Small_1/expanded_conv_4_squeeze_excite_conv_1_2/Squeeze", "op": "Const", "attr": {"value": {"tensor": {"dtype": "DT_FLOAT", "tensorShape": {"dim": [{"size": "240"}]}}}, "dtype": {"type": "DT_FLOAT"}}}, {"name": "StatefulPartitionedCall/functional_1_1/MobileNetV3Small_1/Const_4", "op": "Const", "attr": {"value": {"tensor": {"dtype": "DT_FLOAT", "tensorShape": {}}}, "dtype": {"type": "DT_FLOAT"}}}, {"name": "ConstantFolding/StatefulPartitionedCall/functional_1_1/MobileNetV3Small_1/activation_22_1/truediv_recip", "op": "Const", "attr": {"value": {"tensor": {"dtype": "DT_FLOAT", "tensorShape": {}}}, "dtype": {"type": "DT_FLOAT"}}}, {"name": "ConstantFolding/StatefulPartitionedCall/functional_1_1/MobileNetV3Small_1/activation_21_1/truediv_recip", "op": "Const", "attr": {"value": {"tensor": {"dtype": "DT_FLOAT", "tensorShape": {}}}, "dtype": {"type": "DT_FLOAT"}}}, {"name": "StatefulPartitionedCall/functional_1_1/MobileNetV3Small_1/Const_3", "op": "Const", "attr": {"value": {"tensor": {"dtype": "DT_FLOAT", "tensorShape": {}}}, "dtype": {"type": "DT_FLOAT"}}}, {"name": "StatefulPartitionedCall/functional_1_1/MobileNetV3Small_1/expanded_conv_3_squeeze_excite_avg_pool_1/Mean/reduction_indices", "op": "Const", "attr": {"value": {"tensor": {"dtype": "DT_INT32", "tensorShape": {"dim": [{"size": "2"}]}}}, "dtype": {"type": "DT_INT32"}}}, {"name": "StatefulPartitionedCall/functional_1_1/MobileNetV3Small_1/expanded_conv_3_squeeze_excite_conv_1/convolution/ReadVariableOp", "op": "Const", "attr": {"value": {"tensor": {"dtype": "DT_FLOAT", "tensorShape": {"dim": [{"size": "1"}, {"size": "1"}, {"size": "96"}, {"size": "24"}]}}}, "dtype": {"type": "DT_FLOAT"}}}, {"name": "StatefulPartitionedCall/functional_1_1/MobileNetV3Small_1/expanded_conv_3_squeeze_excite_conv_1/Squeeze", "op": "Const", "attr": {"value": {"tensor": {"dtype": "DT_FLOAT", "tensorShape": {"dim": [{"size": "24"}]}}}, "dtype": {"type": "DT_FLOAT"}}}, {"name": "StatefulPartitionedCall/functional_1_1/MobileNetV3Small_1/expanded_conv_3_squeeze_excite_conv_1_2/convolution/ReadVariableOp", "op": "Const", "attr": {"value": {"tensor": {"dtype": "DT_FLOAT", "tensorShape": {"dim": [{"size": "1"}, {"size": "1"}, {"size": "24"}, {"size": "96"}]}}}, "dtype": {"type": "DT_FLOAT"}}}, {"name": "StatefulPartitionedCall/functional_1_1/MobileNetV3Small_1/expanded_conv_3_squeeze_excite_conv_1_2/Squeeze", "op": "Const", "attr": {"value": {"tensor": {"dtype": "DT_FLOAT", "tensorShape": {"dim": [{"size": "96"}]}}}, "dtype": {"type": "DT_FLOAT"}}}, {"name": "StatefulPartitionedCall/functional_1_1/MobileNetV3Small_1/Const_2", "op": "Const", "attr": {"value": {"tensor": {"dtype": "DT_FLOAT", "tensorShape": {}}}, "dtype": {"type": "DT_FLOAT"}}}, {"name": "ConstantFolding/StatefulPartitionedCall/functional_1_1/MobileNetV3Small_1/activation_20_1/truediv_recip", "op": "Const", "attr": {"value": {"tensor": {"dtype": "DT_FLOAT", "tensorShape": {}}}, "dtype": {"type": "DT_FLOAT"}}}, {"name": "ConstantFolding/StatefulPartitionedCall/functional_1_1/MobileNetV3Small_1/activation_19_1/truediv_recip", "op": "Const", "attr": {"value": {"tensor": {"dtype": "DT_FLOAT", "tensorShape": {}}}, "dtype": {"type": "DT_FLOAT"}}}, {"name": "StatefulPartitionedCall/functional_1_1/MobileNetV3Small_1/expanded_conv_2_project_bn_1/batchnorm/sub", "op": "Const", "attr": {"value": {"tensor": {"dtype": "DT_FLOAT", "tensorShape": {"dim": [{"size": "24"}]}}}, "dtype": {"type": "DT_FLOAT"}}}, {"name": "StatefulPartitionedCall/functional_1_1/MobileNetV3Small_1/Const_1", "op": "Const", "attr": {"value": {"tensor": {"dtype": "DT_FLOAT", "tensorShape": {}}}, "dtype": {"type": "DT_FLOAT"}}}, {"name": "StatefulPartitionedCall/functional_1_1/MobileNetV3Small_1/expanded_conv_squeeze_excite_avg_pool_1/Mean/reduction_indices", "op": "Const", "attr": {"value": {"tensor": {"dtype": "DT_INT32", "tensorShape": {"dim": [{"size": "2"}]}}}, "dtype": {"type": "DT_INT32"}}}, {"name": "StatefulPartitionedCall/functional_1_1/MobileNetV3Small_1/expanded_conv_squeeze_excite_conv_1/convolution/ReadVariableOp", "op": "Const", "attr": {"value": {"tensor": {"dtype": "DT_FLOAT", "tensorShape": {"dim": [{"size": "1"}, {"size": "1"}, {"size": "16"}, {"size": "8"}]}}}, "dtype": {"type": "DT_FLOAT"}}}, {"name": "StatefulPartitionedCall/functional_1_1/MobileNetV3Small_1/expanded_conv_squeeze_excite_conv_1/Squeeze", "op": "Const", "attr": {"value": {"tensor": {"dtype": "DT_FLOAT", "tensorShape": {"dim": [{"size": "8"}]}}}, "dtype": {"type": "DT_FLOAT"}}}, {"name": "StatefulPartitionedCall/functional_1_1/MobileNetV3Small_1/expanded_conv_squeeze_excite_conv_1_2/convolution/ReadVariableOp", "op": "Const", "attr": {"value": {"tensor": {"dtype": "DT_FLOAT", "tensorShape": {"dim": [{"size": "1"}, {"size": "1"}, {"size": "8"}, {"size": "16"}]}}}, "dtype": {"type": "DT_FLOAT"}}}, {"name": "StatefulPartitionedCall/functional_1_1/MobileNetV3Small_1/expanded_conv_squeeze_excite_conv_1_2/Squeeze", "op": "Const", "attr": {"value": {"tensor": {"dtype": "DT_FLOAT", "tensorShape": {"dim": [{"size": "16"}]}}}, "dtype": {"type": "DT_FLOAT"}}}, {"name": "StatefulPartitionedCall/functional_1_1/MobileNetV3Small_1/Const", "op": "Const", "attr": {"value": {"tensor": {"dtype": "DT_FLOAT", "tensorShape": {}}}, "dtype": {"type": "DT_FLOAT"}}}, {"name": "ConstantFolding/StatefulPartitionedCall/functional_1_1/MobileNetV3Small_1/activation_18_1/truediv_recip", "op": "Const", "attr": {"value": {"tensor": {"dtype": "DT_FLOAT", "tensorShape": {}}}, "dtype": {"type": "DT_FLOAT"}}}, {"name": "StatefulPartitionedCall/functional_1_1/MobileNetV3Small_1/rescaling_1_1/Cast/x", "op": "Const", "attr": {"value": {"tensor": {"dtype": "DT_FLOAT", "tensorShape": {}}}, "dtype": {"type": "DT_FLOAT"}}}, {"name": "StatefulPartitionedCall/functional_1_1/MobileNetV3Small_1/rescaling_1_1/Cast_1/x", "op": "Const", "attr": {"value": {"tensor": {"dtype": "DT_FLOAT", "tensorShape": {}}}, "dtype": {"type": "DT_FLOAT"}}}, {"name": "StatefulPartitionedCall/functional_1_1/MobileNetV3Small_1/conv_1/convolution/merged_input", "op": "Const", "attr": {"value": {"tensor": {"dtype": "DT_FLOAT", "tensorShape": {"dim": [{"size": "3"}, {"size": "3"}, {"size": "3"}, {"size": "16"}]}}}, "dtype": {"type": "DT_FLOAT"}}}, {"name": "StatefulPartitionedCall/functional_1_1/MobileNetV3Small_1/conv_bn_1/batchnorm/sub", "op": "Const", "attr": {"value": {"tensor": {"dtype": "DT_FLOAT", "tensorShape": {"dim": [{"size": "16"}]}}}, "dtype": {"type": "DT_FLOAT"}}}, {"name": "StatefulPartitionedCall/functional_1_1/MobileNetV3Small_1/activation_18_1/Const", "op": "Const", "attr": {"value": {"tensor": {"dtype": "DT_FLOAT", "tensorShape": {}}}, "dtype": {"type": "DT_FLOAT"}}}, {"name": "StatefulPartitionedCall/functional_1_1/MobileNetV3Small_1/expanded_conv_depthwise_pad_1/Const", "op": "Const", "attr": {"value": {"tensor": {"dtype": "DT_INT32", "tensorShape": {"dim": [{"size": "4"}, {"size": "2"}]}}}, "dtype": {"type": "DT_INT32"}}}, {"name": "StatefulPartitionedCall/functional_1_1/MobileNetV3Small_1/expanded_conv_depthwise_1/depthwise/ReadVariableOp", "op": "Const", "attr": {"value": {"tensor": {"dtype": "DT_FLOAT", "tensorShape": {"dim": [{"size": "3"}, {"size": "3"}, {"size": "16"}, {"size": "1"}]}}}, "dtype": {"type": "DT_FLOAT"}}}, {"name": "StatefulPartitionedCall/functional_1_1/MobileNetV3Small_1/expanded_conv_depthwise_bn_1/batchnorm/mul", "op": "Const", "attr": {"value": {"tensor": {"dtype": "DT_FLOAT", "tensorShape": {"dim": [{"size": "16"}]}}}, "dtype": {"type": "DT_FLOAT"}}}, {"name": "StatefulPartitionedCall/functional_1_1/MobileNetV3Small_1/expanded_conv_depthwise_bn_1/batchnorm/sub", "op": "Const", "attr": {"value": {"tensor": {"dtype": "DT_FLOAT", "tensorShape": {"dim": [{"size": "16"}]}}}, "dtype": {"type": "DT_FLOAT"}}}, {"name": "StatefulPartitionedCall/functional_1_1/MobileNetV3Small_1/expanded_conv_project_1/convolution/merged_input", "op": "Const", "attr": {"value": {"tensor": {"dtype": "DT_FLOAT", "tensorShape": {"dim": [{"size": "1"}, {"size": "1"}, {"size": "16"}, {"size": "16"}]}}}, "dtype": {"type": "DT_FLOAT"}}}, {"name": "StatefulPartitionedCall/functional_1_1/MobileNetV3Small_1/expanded_conv_project_bn_1/batchnorm/sub", "op": "Const", "attr": {"value": {"tensor": {"dtype": "DT_FLOAT", "tensorShape": {"dim": [{"size": "16"}]}}}, "dtype": {"type": "DT_FLOAT"}}}, {"name": "StatefulPartitionedCall/functional_1_1/MobileNetV3Small_1/expanded_conv_1_expand_1/convolution/merged_input", "op": "Const", "attr": {"value": {"tensor": {"dtype": "DT_FLOAT", "tensorShape": {"dim": [{"size": "1"}, {"size": "1"}, {"size": "16"}, {"size": "72"}]}}}, "dtype": {"type": "DT_FLOAT"}}}, {"name": "StatefulPartitionedCall/functional_1_1/MobileNetV3Small_1/expanded_conv_1_expand_bn_1/batchnorm/sub", "op": "Const", "attr": {"value": {"tensor": {"dtype": "DT_FLOAT", "tensorShape": {"dim": [{"size": "72"}]}}}, "dtype": {"type": "DT_FLOAT"}}}, {"name": "StatefulPartitionedCall/functional_1_1/MobileNetV3Small_1/expanded_conv_1_depthwise_pad_1/Const", "op": "Const", "attr": {"value": {"tensor": {"dtype": "DT_INT32", "tensorShape": {"dim": [{"size": "4"}, {"size": "2"}]}}}, "dtype": {"type": "DT_INT32"}}}, {"name": "StatefulPartitionedCall/functional_1_1/MobileNetV3Small_1/expanded_conv_1_depthwise_1/depthwise/ReadVariableOp", "op": "Const", "attr": {"value": {"tensor": {"dtype": "DT_FLOAT", "tensorShape": {"dim": [{"size": "3"}, {"size": "3"}, {"size": "72"}, {"size": "1"}]}}}, "dtype": {"type": "DT_FLOAT"}}}, {"name": "StatefulPartitionedCall/functional_1_1/MobileNetV3Small_1/expanded_conv_1_depthwise_bn_1/batchnorm/mul", "op": "Const", "attr": {"value": {"tensor": {"dtype": "DT_FLOAT", "tensorShape": {"dim": [{"size": "72"}]}}}, "dtype": {"type": "DT_FLOAT"}}}, {"name": "StatefulPartitionedCall/functional_1_1/MobileNetV3Small_1/expanded_conv_1_depthwise_bn_1/batchnorm/sub", "op": "Const", "attr": {"value": {"tensor": {"dtype": "DT_FLOAT", "tensorShape": {"dim": [{"size": "72"}]}}}, "dtype": {"type": "DT_FLOAT"}}}, {"name": "StatefulPartitionedCall/functional_1_1/MobileNetV3Small_1/expanded_conv_1_project_1/convolution/merged_input", "op": "Const", "attr": {"value": {"tensor": {"dtype": "DT_FLOAT", "tensorShape": {"dim": [{"size": "1"}, {"size": "1"}, {"size": "72"}, {"size": "24"}]}}}, "dtype": {"type": "DT_FLOAT"}}}, {"name": "StatefulPartitionedCall/functional_1_1/MobileNetV3Small_1/expanded_conv_1_project_bn_1/batchnorm/sub", "op": "Const", "attr": {"value": {"tensor": {"dtype": "DT_FLOAT", "tensorShape": {"dim": [{"size": "24"}]}}}, "dtype": {"type": "DT_FLOAT"}}}, {"name": "StatefulPartitionedCall/functional_1_1/MobileNetV3Small_1/expanded_conv_2_expand_1/convolution/merged_input", "op": "Const", "attr": {"value": {"tensor": {"dtype": "DT_FLOAT", "tensorShape": {"dim": [{"size": "1"}, {"size": "1"}, {"size": "24"}, {"size": "88"}]}}}, "dtype": {"type": "DT_FLOAT"}}}, {"name": "StatefulPartitionedCall/functional_1_1/MobileNetV3Small_1/expanded_conv_2_expand_bn_1/batchnorm/sub", "op": "Const", "attr": {"value": {"tensor": {"dtype": "DT_FLOAT", "tensorShape": {"dim": [{"size": "88"}]}}}, "dtype": {"type": "DT_FLOAT"}}}, {"name": "StatefulPartitionedCall/functional_1_1/MobileNetV3Small_1/expanded_conv_2_depthwise_1/depthwise/ReadVariableOp", "op": "Const", "attr": {"value": {"tensor": {"dtype": "DT_FLOAT", "tensorShape": {"dim": [{"size": "3"}, {"size": "3"}, {"size": "88"}, {"size": "1"}]}}}, "dtype": {"type": "DT_FLOAT"}}}, {"name": "StatefulPartitionedCall/functional_1_1/MobileNetV3Small_1/expanded_conv_2_depthwise_bn_1/batchnorm/mul", "op": "Const", "attr": {"value": {"tensor": {"dtype": "DT_FLOAT", "tensorShape": {"dim": [{"size": "88"}]}}}, "dtype": {"type": "DT_FLOAT"}}}, {"name": "StatefulPartitionedCall/functional_1_1/MobileNetV3Small_1/expanded_conv_2_depthwise_bn_1/batchnorm/sub", "op": "Const", "attr": {"value": {"tensor": {"dtype": "DT_FLOAT", "tensorShape": {"dim": [{"size": "88"}]}}}, "dtype": {"type": "DT_FLOAT"}}}, {"name": "StatefulPartitionedCall/functional_1_1/MobileNetV3Small_1/expanded_conv_2_project_1/convolution/merged_input", "op": "Const", "attr": {"value": {"tensor": {"dtype": "DT_FLOAT", "tensorShape": {"dim": [{"size": "1"}, {"size": "1"}, {"size": "88"}, {"size": "24"}]}}}, "dtype": {"type": "DT_FLOAT"}}}, {"name": "StatefulPartitionedCall/functional_1_1/MobileNetV3Small_1/expanded_conv_3_expand_1/convolution/merged_input", "op": "Const", "attr": {"value": {"tensor": {"dtype": "DT_FLOAT", "tensorShape": {"dim": [{"size": "1"}, {"size": "1"}, {"size": "24"}, {"size": "96"}]}}}, "dtype": {"type": "DT_FLOAT"}}}, {"name": "StatefulPartitionedCall/functional_1_1/MobileNetV3Small_1/expanded_conv_3_expand_bn_1/batchnorm/sub", "op": "Const", "attr": {"value": {"tensor": {"dtype": "DT_FLOAT", "tensorShape": {"dim": [{"size": "96"}]}}}, "dtype": {"type": "DT_FLOAT"}}}, {"name": "StatefulPartitionedCall/functional_1_1/MobileNetV3Small_1/activation_19_1/Const", "op": "Const", "attr": {"value": {"tensor": {"dtype": "DT_FLOAT", "tensorShape": {}}}, "dtype": {"type": "DT_FLOAT"}}}, {"name": "StatefulPartitionedCall/functional_1_1/MobileNetV3Small_1/expanded_conv_3_depthwise_pad_1/Const", "op": "Const", "attr": {"value": {"tensor": {"dtype": "DT_INT32", "tensorShape": {"dim": [{"size": "4"}, {"size": "2"}]}}}, "dtype": {"type": "DT_INT32"}}}, {"name": "StatefulPartitionedCall/functional_1_1/MobileNetV3Small_1/expanded_conv_3_depthwise_1/depthwise/ReadVariableOp", "op": "Const", "attr": {"value": {"tensor": {"dtype": "DT_FLOAT", "tensorShape": {"dim": [{"size": "5"}, {"size": "5"}, {"size": "96"}, {"size": "1"}]}}}, "dtype": {"type": "DT_FLOAT"}}}, {"name": "StatefulPartitionedCall/functional_1_1/MobileNetV3Small_1/expanded_conv_3_depthwise_bn_1/batchnorm/mul", "op": "Const", "attr": {"value": {"tensor": {"dtype": "DT_FLOAT", "tensorShape": {"dim": [{"size": "96"}]}}}, "dtype": {"type": "DT_FLOAT"}}}, {"name": "StatefulPartitionedCall/functional_1_1/MobileNetV3Small_1/expanded_conv_3_depthwise_bn_1/batchnorm/sub", "op": "Const", "attr": {"value": {"tensor": {"dtype": "DT_FLOAT", "tensorShape": {"dim": [{"size": "96"}]}}}, "dtype": {"type": "DT_FLOAT"}}}, {"name": "StatefulPartitionedCall/functional_1_1/MobileNetV3Small_1/activation_20_1/Const", "op": "Const", "attr": {"value": {"tensor": {"dtype": "DT_FLOAT", "tensorShape": {}}}, "dtype": {"type": "DT_FLOAT"}}}, {"name": "StatefulPartitionedCall/functional_1_1/MobileNetV3Small_1/expanded_conv_3_project_1/convolution/merged_input", "op": "Const", "attr": {"value": {"tensor": {"dtype": "DT_FLOAT", "tensorShape": {"dim": [{"size": "1"}, {"size": "1"}, {"size": "96"}, {"size": "40"}]}}}, "dtype": {"type": "DT_FLOAT"}}}, {"name": "StatefulPartitionedCall/functional_1_1/MobileNetV3Small_1/expanded_conv_3_project_bn_1/batchnorm/sub", "op": "Const", "attr": {"value": {"tensor": {"dtype": "DT_FLOAT", "tensorShape": {"dim": [{"size": "40"}]}}}, "dtype": {"type": "DT_FLOAT"}}}, {"name": "StatefulPartitionedCall/functional_1_1/MobileNetV3Small_1/expanded_conv_4_expand_1/convolution/merged_input", "op": "Const", "attr": {"value": {"tensor": {"dtype": "DT_FLOAT", "tensorShape": {"dim": [{"size": "1"}, {"size": "1"}, {"size": "40"}, {"size": "240"}]}}}, "dtype": {"type": "DT_FLOAT"}}}, {"name": "StatefulPartitionedCall/functional_1_1/MobileNetV3Small_1/expanded_conv_4_expand_bn_1/batchnorm/sub", "op": "Const", "attr": {"value": {"tensor": {"dtype": "DT_FLOAT", "tensorShape": {"dim": [{"size": "240"}]}}}, "dtype": {"type": "DT_FLOAT"}}}, {"name": "StatefulPartitionedCall/functional_1_1/MobileNetV3Small_1/activation_21_1/Const", "op": "Const", "attr": {"value": {"tensor": {"dtype": "DT_FLOAT", "tensorShape": {}}}, "dtype": {"type": "DT_FLOAT"}}}, {"name": "StatefulPartitionedCall/functional_1_1/MobileNetV3Small_1/expanded_conv_4_depthwise_1/depthwise/ReadVariableOp", "op": "Const", "attr": {"value": {"tensor": {"dtype": "DT_FLOAT", "tensorShape": {"dim": [{"size": "5"}, {"size": "5"}, {"size": "240"}, {"size": "1"}]}}}, "dtype": {"type": "DT_FLOAT"}}}, {"name": "StatefulPartitionedCall/functional_1_1/MobileNetV3Small_1/expanded_conv_4_depthwise_bn_1/batchnorm/mul", "op": "Const", "attr": {"value": {"tensor": {"dtype": "DT_FLOAT", "tensorShape": {"dim": [{"size": "240"}]}}}, "dtype": {"type": "DT_FLOAT"}}}, {"name": "StatefulPartitionedCall/functional_1_1/MobileNetV3Small_1/expanded_conv_4_depthwise_bn_1/batchnorm/sub", "op": "Const", "attr": {"value": {"tensor": {"dtype": "DT_FLOAT", "tensorShape": {"dim": [{"size": "240"}]}}}, "dtype": {"type": "DT_FLOAT"}}}, {"name": "StatefulPartitionedCall/functional_1_1/MobileNetV3Small_1/activation_22_1/Const", "op": "Const", "attr": {"value": {"tensor": {"dtype": "DT_FLOAT", "tensorShape": {}}}, "dtype": {"type": "DT_FLOAT"}}}, {"name": "StatefulPartitionedCall/functional_1_1/MobileNetV3Small_1/expanded_conv_4_project_1/convolution/merged_input", "op": "Const", "attr": {"value": {"tensor": {"dtype": "DT_FLOAT", "tensorShape": {"dim": [{"size": "1"}, {"size": "1"}, {"size": "240"}, {"size": "40"}]}}}, "dtype": {"type": "DT_FLOAT"}}}, {"name": "StatefulPartitionedCall/functional_1_1/MobileNetV3Small_1/expanded_conv_5_expand_1/convolution/merged_input", "op": "Const", "attr": {"value": {"tensor": {"dtype": "DT_FLOAT", "tensorShape": {"dim": [{"size": "1"}, {"size": "1"}, {"size": "40"}, {"size": "240"}]}}}, "dtype": {"type": "DT_FLOAT"}}}, {"name": "StatefulPartitionedCall/functional_1_1/MobileNetV3Small_1/expanded_conv_5_expand_bn_1/batchnorm/sub", "op": "Const", "attr": {"value": {"tensor": {"dtype": "DT_FLOAT", "tensorShape": {"dim": [{"size": "240"}]}}}, "dtype": {"type": "DT_FLOAT"}}}, {"name": "StatefulPartitionedCall/functional_1_1/MobileNetV3Small_1/activation_23_1/Const", "op": "Const", "attr": {"value": {"tensor": {"dtype": "DT_FLOAT", "tensorShape": {}}}, "dtype": {"type": "DT_FLOAT"}}}, {"name": "StatefulPartitionedCall/functional_1_1/MobileNetV3Small_1/expanded_conv_5_depthwise_1/depthwise/ReadVariableOp", "op": "Const", "attr": {"value": {"tensor": {"dtype": "DT_FLOAT", "tensorShape": {"dim": [{"size": "5"}, {"size": "5"}, {"size": "240"}, {"size": "1"}]}}}, "dtype": {"type": "DT_FLOAT"}}}, {"name": "StatefulPartitionedCall/functional_1_1/MobileNetV3Small_1/expanded_conv_5_depthwise_bn_1/batchnorm/mul", "op": "Const", "attr": {"value": {"tensor": {"dtype": "DT_FLOAT", "tensorShape": {"dim": [{"size": "240"}]}}}, "dtype": {"type": "DT_FLOAT"}}}, {"name": "StatefulPartitionedCall/functional_1_1/MobileNetV3Small_1/expanded_conv_5_depthwise_bn_1/batchnorm/sub", "op": "Const", "attr": {"value": {"tensor": {"dtype": "DT_FLOAT", "tensorShape": {"dim": [{"size": "240"}]}}}, "dtype": {"type": "DT_FLOAT"}}}, {"name": "StatefulPartitionedCall/functional_1_1/MobileNetV3Small_1/activation_24_1/Const", "op": "Const", "attr": {"value": {"tensor": {"dtype": "DT_FLOAT", "tensorShape": {}}}, "dtype": {"type": "DT_FLOAT"}}}, {"name": "StatefulPartitionedCall/functional_1_1/MobileNetV3Small_1/expanded_conv_5_project_1/convolution/merged_input", "op": "Const", "attr": {"value": {"tensor": {"dtype": "DT_FLOAT", "tensorShape": {"dim": [{"size": "1"}, {"size": "1"}, {"size": "240"}, {"size": "40"}]}}}, "dtype": {"type": "DT_FLOAT"}}}, {"name": "StatefulPartitionedCall/functional_1_1/MobileNetV3Small_1/expanded_conv_6_expand_1/convolution/merged_input", "op": "Const", "attr": {"value": {"tensor": {"dtype": "DT_FLOAT", "tensorShape": {"dim": [{"size": "1"}, {"size": "1"}, {"size": "40"}, {"size": "120"}]}}}, "dtype": {"type": "DT_FLOAT"}}}, {"name": "StatefulPartitionedCall/functional_1_1/MobileNetV3Small_1/expanded_conv_6_expand_bn_1/batchnorm/sub", "op": "Const", "attr": {"value": {"tensor": {"dtype": "DT_FLOAT", "tensorShape": {"dim": [{"size": "120"}]}}}, "dtype": {"type": "DT_FLOAT"}}}, {"name": "StatefulPartitionedCall/functional_1_1/MobileNetV3Small_1/activation_25_1/Const", "op": "Const", "attr": {"value": {"tensor": {"dtype": "DT_FLOAT", "tensorShape": {}}}, "dtype": {"type": "DT_FLOAT"}}}, {"name": "StatefulPartitionedCall/functional_1_1/MobileNetV3Small_1/expanded_conv_6_depthwise_1/depthwise/ReadVariableOp", "op": "Const", "attr": {"value": {"tensor": {"dtype": "DT_FLOAT", "tensorShape": {"dim": [{"size": "5"}, {"size": "5"}, {"size": "120"}, {"size": "1"}]}}}, "dtype": {"type": "DT_FLOAT"}}}, {"name": "StatefulPartitionedCall/functional_1_1/MobileNetV3Small_1/expanded_conv_6_depthwise_bn_1/batchnorm/mul", "op": "Const", "attr": {"value": {"tensor": {"dtype": "DT_FLOAT", "tensorShape": {"dim": [{"size": "120"}]}}}, "dtype": {"type": "DT_FLOAT"}}}, {"name": "StatefulPartitionedCall/functional_1_1/MobileNetV3Small_1/expanded_conv_6_depthwise_bn_1/batchnorm/sub", "op": "Const", "attr": {"value": {"tensor": {"dtype": "DT_FLOAT", "tensorShape": {"dim": [{"size": "120"}]}}}, "dtype": {"type": "DT_FLOAT"}}}, {"name": "StatefulPartitionedCall/functional_1_1/MobileNetV3Small_1/activation_26_1/Const", "op": "Const", "attr": {"value": {"tensor": {"dtype": "DT_FLOAT", "tensorShape": {}}}, "dtype": {"type": "DT_FLOAT"}}}, {"name": "StatefulPartitionedCall/functional_1_1/MobileNetV3Small_1/expanded_conv_6_project_1/convolution/merged_input", "op": "Const", "attr": {"value": {"tensor": {"dtype": "DT_FLOAT", "tensorShape": {"dim": [{"size": "1"}, {"size": "1"}, {"size": "120"}, {"size": "48"}]}}}, "dtype": {"type": "DT_FLOAT"}}}, {"name": "StatefulPartitionedCall/functional_1_1/MobileNetV3Small_1/expanded_conv_6_project_bn_1/batchnorm/sub", "op": "Const", "attr": {"value": {"tensor": {"dtype": "DT_FLOAT", "tensorShape": {"dim": [{"size": "48"}]}}}, "dtype": {"type": "DT_FLOAT"}}}, {"name": "StatefulPartitionedCall/functional_1_1/MobileNetV3Small_1/expanded_conv_7_expand_1/convolution/merged_input", "op": "Const", "attr": {"value": {"tensor": {"dtype": "DT_FLOAT", "tensorShape": {"dim": [{"size": "1"}, {"size": "1"}, {"size": "48"}, {"size": "144"}]}}}, "dtype": {"type": "DT_FLOAT"}}}, {"name": "StatefulPartitionedCall/functional_1_1/MobileNetV3Small_1/expanded_conv_7_expand_bn_1/batchnorm/sub", "op": "Const", "attr": {"value": {"tensor": {"dtype": "DT_FLOAT", "tensorShape": {"dim": [{"size": "144"}]}}}, "dtype": {"type": "DT_FLOAT"}}}, {"name": "StatefulPartitionedCall/functional_1_1/MobileNetV3Small_1/activation_27_1/Const", "op": "Const", "attr": {"value": {"tensor": {"dtype": "DT_FLOAT", "tensorShape": {}}}, "dtype": {"type": "DT_FLOAT"}}}, {"name": "StatefulPartitionedCall/functional_1_1/MobileNetV3Small_1/expanded_conv_7_depthwise_1/depthwise/ReadVariableOp", "op": "Const", "attr": {"value": {"tensor": {"dtype": "DT_FLOAT", "tensorShape": {"dim": [{"size": "5"}, {"size": "5"}, {"size": "144"}, {"size": "1"}]}}}, "dtype": {"type": "DT_FLOAT"}}}, {"name": "StatefulPartitionedCall/functional_1_1/MobileNetV3Small_1/expanded_conv_7_depthwise_bn_1/batchnorm/mul", "op": "Const", "attr": {"value": {"tensor": {"dtype": "DT_FLOAT", "tensorShape": {"dim": [{"size": "144"}]}}}, "dtype": {"type": "DT_FLOAT"}}}, {"name": "StatefulPartitionedCall/functional_1_1/MobileNetV3Small_1/expanded_conv_7_depthwise_bn_1/batchnorm/sub", "op": "Const", "attr": {"value": {"tensor": {"dtype": "DT_FLOAT", "tensorShape": {"dim": [{"size": "144"}]}}}, "dtype": {"type": "DT_FLOAT"}}}, {"name": "StatefulPartitionedCall/functional_1_1/MobileNetV3Small_1/activation_28_1/Const", "op": "Const", "attr": {"value": {"tensor": {"dtype": "DT_FLOAT", "tensorShape": {}}}, "dtype": {"type": "DT_FLOAT"}}}, {"name": "StatefulPartitionedCall/functional_1_1/MobileNetV3Small_1/expanded_conv_7_project_1/convolution/merged_input", "op": "Const", "attr": {"value": {"tensor": {"dtype": "DT_FLOAT", "tensorShape": {"dim": [{"size": "1"}, {"size": "1"}, {"size": "144"}, {"size": "48"}]}}}, "dtype": {"type": "DT_FLOAT"}}}, {"name": "StatefulPartitionedCall/functional_1_1/MobileNetV3Small_1/expanded_conv_8_expand_1/convolution/merged_input", "op": "Const", "attr": {"value": {"tensor": {"dtype": "DT_FLOAT", "tensorShape": {"dim": [{"size": "1"}, {"size": "1"}, {"size": "48"}, {"size": "288"}]}}}, "dtype": {"type": "DT_FLOAT"}}}, {"name": "StatefulPartitionedCall/functional_1_1/MobileNetV3Small_1/expanded_conv_8_expand_bn_1/batchnorm/sub", "op": "Const", "attr": {"value": {"tensor": {"dtype": "DT_FLOAT", "tensorShape": {"dim": [{"size": "288"}]}}}, "dtype": {"type": "DT_FLOAT"}}}, {"name": "StatefulPartitionedCall/functional_1_1/MobileNetV3Small_1/activation_29_1/Const", "op": "Const", "attr": {"value": {"tensor": {"dtype": "DT_FLOAT", "tensorShape": {}}}, "dtype": {"type": "DT_FLOAT"}}}, {"name": "StatefulPartitionedCall/functional_1_1/MobileNetV3Small_1/expanded_conv_8_depthwise_pad_1/Const", "op": "Const", "attr": {"value": {"tensor": {"dtype": "DT_INT32", "tensorShape": {"dim": [{"size": "4"}, {"size": "2"}]}}}, "dtype": {"type": "DT_INT32"}}}, {"name": "StatefulPartitionedCall/functional_1_1/MobileNetV3Small_1/expanded_conv_8_depthwise_1/depthwise/ReadVariableOp", "op": "Const", "attr": {"value": {"tensor": {"dtype": "DT_FLOAT", "tensorShape": {"dim": [{"size": "5"}, {"size": "5"}, {"size": "288"}, {"size": "1"}]}}}, "dtype": {"type": "DT_FLOAT"}}}, {"name": "StatefulPartitionedCall/functional_1_1/MobileNetV3Small_1/expanded_conv_8_depthwise_bn_1/batchnorm/mul", "op": "Const", "attr": {"value": {"tensor": {"dtype": "DT_FLOAT", "tensorShape": {"dim": [{"size": "288"}]}}}, "dtype": {"type": "DT_FLOAT"}}}, {"name": "StatefulPartitionedCall/functional_1_1/MobileNetV3Small_1/expanded_conv_8_depthwise_bn_1/batchnorm/sub", "op": "Const", "attr": {"value": {"tensor": {"dtype": "DT_FLOAT", "tensorShape": {"dim": [{"size": "288"}]}}}, "dtype": {"type": "DT_FLOAT"}}}, {"name": "StatefulPartitionedCall/functional_1_1/MobileNetV3Small_1/activation_30_1/Const", "op": "Const", "attr": {"value": {"tensor": {"dtype": "DT_FLOAT", "tensorShape": {}}}, "dtype": {"type": "DT_FLOAT"}}}, {"name": "StatefulPartitionedCall/functional_1_1/MobileNetV3Small_1/expanded_conv_8_project_1/convolution/merged_input", "op": "Const", "attr": {"value": {"tensor": {"dtype": "DT_FLOAT", "tensorShape": {"dim": [{"size": "1"}, {"size": "1"}, {"size": "288"}, {"size": "96"}]}}}, "dtype": {"type": "DT_FLOAT"}}}, {"name": "StatefulPartitionedCall/functional_1_1/MobileNetV3Small_1/expanded_conv_8_project_bn_1/batchnorm/sub", "op": "Const", "attr": {"value": {"tensor": {"dtype": "DT_FLOAT", "tensorShape": {"dim": [{"size": "96"}]}}}, "dtype": {"type": "DT_FLOAT"}}}, {"name": "StatefulPartitionedCall/functional_1_1/MobileNetV3Small_1/expanded_conv_9_expand_1/convolution/merged_input", "op": "Const", "attr": {"value": {"tensor": {"dtype": "DT_FLOAT", "tensorShape": {"dim": [{"size": "1"}, {"size": "1"}, {"size": "96"}, {"size": "576"}]}}}, "dtype": {"type": "DT_FLOAT"}}}, {"name": "StatefulPartitionedCall/functional_1_1/MobileNetV3Small_1/expanded_conv_9_expand_bn_1/batchnorm/sub", "op": "Const", "attr": {"value": {"tensor": {"dtype": "DT_FLOAT", "tensorShape": {"dim": [{"size": "576"}]}}}, "dtype": {"type": "DT_FLOAT"}}}, {"name": "StatefulPartitionedCall/functional_1_1/MobileNetV3Small_1/activation_31_1/Const", "op": "Const", "attr": {"value": {"tensor": {"dtype": "DT_FLOAT", "tensorShape": {}}}, "dtype": {"type": "DT_FLOAT"}}}, {"name": "StatefulPartitionedCall/functional_1_1/MobileNetV3Small_1/expanded_conv_9_depthwise_1/depthwise/ReadVariableOp", "op": "Const", "attr": {"value": {"tensor": {"dtype": "DT_FLOAT", "tensorShape": {"dim": [{"size": "5"}, {"size": "5"}, {"size": "576"}, {"size": "1"}]}}}, "dtype": {"type": "DT_FLOAT"}}}, {"name": "StatefulPartitionedCall/functional_1_1/MobileNetV3Small_1/expanded_conv_9_depthwise_bn_1/batchnorm/mul", "op": "Const", "attr": {"value": {"tensor": {"dtype": "DT_FLOAT", "tensorShape": {"dim": [{"size": "576"}]}}}, "dtype": {"type": "DT_FLOAT"}}}, {"name": "StatefulPartitionedCall/functional_1_1/MobileNetV3Small_1/expanded_conv_9_depthwise_bn_1/batchnorm/sub", "op": "Const", "attr": {"value": {"tensor": {"dtype": "DT_FLOAT", "tensorShape": {"dim": [{"size": "576"}]}}}, "dtype": {"type": "DT_FLOAT"}}}, {"name": "StatefulPartitionedCall/functional_1_1/MobileNetV3Small_1/activation_32_1/Const", "op": "Const", "attr": {"value": {"tensor": {"dtype": "DT_FLOAT", "tensorShape": {}}}, "dtype": {"type": "DT_FLOAT"}}}, {"name": "StatefulPartitionedCall/functional_1_1/MobileNetV3Small_1/expanded_conv_9_project_1/convolution/merged_input", "op": "Const", "attr": {"value": {"tensor": {"dtype": "DT_FLOAT", "tensorShape": {"dim": [{"size": "1"}, {"size": "1"}, {"size": "576"}, {"size": "96"}]}}}, "dtype": {"type": "DT_FLOAT"}}}, {"name": "StatefulPartitionedCall/functional_1_1/MobileNetV3Small_1/expanded_conv_10_expand_1/convolution/merged_input", "op": "Const", "attr": {"value": {"tensor": {"dtype": "DT_FLOAT", "tensorShape": {"dim": [{"size": "1"}, {"size": "1"}, {"size": "96"}, {"size": "576"}]}}}, "dtype": {"type": "DT_FLOAT"}}}, {"name": "StatefulPartitionedCall/functional_1_1/MobileNetV3Small_1/expanded_conv_10_expand_bn_1/batchnorm/sub", "op": "Const", "attr": {"value": {"tensor": {"dtype": "DT_FLOAT", "tensorShape": {"dim": [{"size": "576"}]}}}, "dtype": {"type": "DT_FLOAT"}}}, {"name": "StatefulPartitionedCall/functional_1_1/MobileNetV3Small_1/activation_33_1/Const", "op": "Const", "attr": {"value": {"tensor": {"dtype": "DT_FLOAT", "tensorShape": {}}}, "dtype": {"type": "DT_FLOAT"}}}, {"name": "StatefulPartitionedCall/functional_1_1/MobileNetV3Small_1/expanded_conv_10_depthwise_1/depthwise/ReadVariableOp", "op": "Const", "attr": {"value": {"tensor": {"dtype": "DT_FLOAT", "tensorShape": {"dim": [{"size": "5"}, {"size": "5"}, {"size": "576"}, {"size": "1"}]}}}, "dtype": {"type": "DT_FLOAT"}}}, {"name": "StatefulPartitionedCall/functional_1_1/MobileNetV3Small_1/expanded_conv_10_depthwise_bn_1/batchnorm/mul", "op": "Const", "attr": {"value": {"tensor": {"dtype": "DT_FLOAT", "tensorShape": {"dim": [{"size": "576"}]}}}, "dtype": {"type": "DT_FLOAT"}}}, {"name": "StatefulPartitionedCall/functional_1_1/MobileNetV3Small_1/expanded_conv_10_depthwise_bn_1/batchnorm/sub", "op": "Const", "attr": {"value": {"tensor": {"dtype": "DT_FLOAT", "tensorShape": {"dim": [{"size": "576"}]}}}, "dtype": {"type": "DT_FLOAT"}}}, {"name": "StatefulPartitionedCall/functional_1_1/MobileNetV3Small_1/activation_34_1/Const", "op": "Const", "attr": {"value": {"tensor": {"dtype": "DT_FLOAT", "tensorShape": {}}}, "dtype": {"type": "DT_FLOAT"}}}, {"name": "StatefulPartitionedCall/functional_1_1/MobileNetV3Small_1/expanded_conv_10_project_1/convolution/merged_input", "op": "Const", "attr": {"value": {"tensor": {"dtype": "DT_FLOAT", "tensorShape": {"dim": [{"size": "1"}, {"size": "1"}, {"size": "576"}, {"size": "96"}]}}}, "dtype": {"type": "DT_FLOAT"}}}, {"name": "StatefulPartitionedCall/functional_1_1/MobileNetV3Small_1/conv_1_2/convolution/merged_input", "op": "Const", "attr": {"value": {"tensor": {"dtype": "DT_FLOAT", "tensorShape": {"dim": [{"size": "1"}, {"size": "1"}, {"size": "96"}, {"size": "576"}]}}}, "dtype": {"type": "DT_FLOAT"}}}, {"name": "StatefulPartitionedCall/functional_1_1/MobileNetV3Small_1/conv_1_bn_1/batchnorm/sub", "op": "Const", "attr": {"value": {"tensor": {"dtype": "DT_FLOAT", "tensorShape": {"dim": [{"size": "576"}]}}}, "dtype": {"type": "DT_FLOAT"}}}, {"name": "StatefulPartitionedCall/functional_1_1/MobileNetV3Small_1/activation_35_1/Const", "op": "Const", "attr": {"value": {"tensor": {"dtype": "DT_FLOAT", "tensorShape": {}}}, "dtype": {"type": "DT_FLOAT"}}}, {"name": "StatefulPartitionedCall/functional_1_1/global_average_pooling2d_1_1/Mean/reduction_indices", "op": "Const", "attr": {"value": {"tensor": {"dtype": "DT_INT32", "tensorShape": {"dim": [{"size": "2"}]}}}, "dtype": {"type": "DT_INT32"}}}, {"name": "StatefulPartitionedCall/functional_1_1/batch_normalization_1_1/batchnorm/mul", "op": "Const", "attr": {"value": {"tensor": {"dtype": "DT_FLOAT", "tensorShape": {"dim": [{"size": "576"}]}}}, "dtype": {"type": "DT_FLOAT"}}}, {"name": "StatefulPartitionedCall/functional_1_1/batch_normalization_1_1/batchnorm/sub", "op": "Const", "attr": {"value": {"tensor": {"dtype": "DT_FLOAT", "tensorShape": {"dim": [{"size": "576"}]}}}, "dtype": {"type": "DT_FLOAT"}}}, {"name": "StatefulPartitionedCall/functional_1_1/dense_2_1/Cast/ReadVariableOp", "op": "Const", "attr": {"value": {"tensor": {"dtype": "DT_FLOAT", "tensorShape": {"dim": [{"size": "576"}, {"size": "128"}]}}}, "dtype": {"type": "DT_FLOAT"}}}, {"name": "StatefulPartitionedCall/functional_1_1/dense_2_1/BiasAdd/ReadVariableOp", "op": "Const", "attr": {"value": {"tensor": {"dtype": "DT_FLOAT", "tensorShape": {"dim": [{"size": "128"}]}}}, "dtype": {"type": "DT_FLOAT"}}}, {"name": "StatefulPartitionedCall/functional_1_1/dense_3_1/Cast/ReadVariableOp", "op": "Const", "attr": {"value": {"tensor": {"dtype": "DT_FLOAT", "tensorShape": {"dim": [{"size": "128"}, {"size": "1"}]}}}, "dtype": {"type": "DT_FLOAT"}}}, {"name": "StatefulPartitionedCall/functional_1_1/dense_3_1/Add/ReadVariableOp", "op": "Const", "attr": {"value": {"tensor": {"dtype": "DT_FLOAT", "tensorShape": {"dim": [{"size": "1"}]}}}, "dtype": {"type": "DT_FLOAT"}}}, {"name": "input_layer_3", "op": "Placeholder", "attr": {"shape": {"shape": {"dim": [{"size": "-1"}, {"size": "224"}, {"size": "224"}, {"size": "3"}]}}, "dtype": {"type": "DT_FLOAT"}}}, {"name": "StatefulPartitionedCall/functional_1_1/MobileNetV3Small_1/rescaling_1_1/mul", "op": "Mul", "input": ["input_layer_3", "StatefulPartitionedCall/functional_1_1/MobileNetV3Small_1/rescaling_1_1/Cast/x"], "attr": {"T": {"type": "DT_FLOAT"}}}, {"name": "StatefulPartitionedCall/functional_1_1/MobileNetV3Small_1/rescaling_1_1/add", "op": "AddV2", "input": ["StatefulPartitionedCall/functional_1_1/MobileNetV3Small_1/rescaling_1_1/mul", "StatefulPartitionedCall/functional_1_1/MobileNetV3Small_1/rescaling_1_1/Cast_1/x"], "attr": {"T": {"type": "DT_FLOAT"}}}, {"name": "StatefulPartitionedCall/functional_1_1/MobileNetV3Small_1/conv_bn_1/batchnorm/add_1", "op": "_FusedConv2D", "input": ["StatefulPartitionedCall/functional_1_1/MobileNetV3Small_1/rescaling_1_1/add", "StatefulPartitionedCall/functional_1_1/MobileNetV3Small_1/conv_1/convolution/merged_input", "StatefulPartitionedCall/functional_1_1/MobileNetV3Small_1/conv_bn_1/batchnorm/sub"], "device": "/device:CPU:0", "attr": {"num_host_args": {"i": "0"}, "data_format": {"s": "TkhXQw=="}, "filter_format": {"s": "SFdJTw=="}, "strides": {"list": {"i": ["1", "2", "2", "1"]}}, "num_args": {"i": "1"}, "fused_ops": {"list": {"s": ["Qmlhc0FkZA=="]}}, "TArgs": {"list": {"type": ["DT_FLOAT"]}}, "padding": {"s": "U0FNRQ=="}, "use_cudnn_on_gpu": {"b": true}, "leakyrelu_alpha": {"f": 0.2}, "epsilon": {"f": 0.0}, "T": {"type": "DT_FLOAT"}, "explicit_paddings": {"list": {}}, "dilations": {"list": {"i": ["1", "1", "1", "1"]}}}}, {"name": "StatefulPartitionedCall/functional_1_1/MobileNetV3Small_1/activation_18_1/truediv", "op": "Mul", "input": ["ConstantFolding/StatefulPartitionedCall/functional_1_1/MobileNetV3Small_1/activation_18_1/truediv_recip", "StatefulPartitionedCall/functional_1_1/MobileNetV3Small_1/conv_bn_1/batchnorm/add_1"], "attr": {"_grappler_ArithmeticOptimizer_MinimizeBroadcasts": {"b": true}, "T": {"type": "DT_FLOAT"}}}, {"name": "StatefulPartitionedCall/functional_1_1/MobileNetV3Small_1/activation_18_1/add", "op": "AddV2", "input": ["StatefulPartitionedCall/functional_1_1/MobileNetV3Small_1/conv_bn_1/batchnorm/add_1", "StatefulPartitionedCall/functional_1_1/MobileNetV3Small_1/activation_18_1/Const"], "attr": {"T": {"type": "DT_FLOAT"}}}, {"name": "StatefulPartitionedCall/functional_1_1/MobileNetV3Small_1/activation_18_1/Relu6", "op": "Relu6", "input": ["StatefulPartitionedCall/functional_1_1/MobileNetV3Small_1/activation_18_1/add"], "attr": {"T": {"type": "DT_FLOAT"}}}, {"name": "StatefulPartitionedCall/functional_1_1/MobileNetV3Small_1/activation_18_1/mul", "op": "Mul", "input": ["StatefulPartitionedCall/functional_1_1/MobileNetV3Small_1/activation_18_1/truediv", "StatefulPartitionedCall/functional_1_1/MobileNetV3Small_1/activation_18_1/Relu6"], "attr": {"_grappler_ArithmeticOptimizer_MinimizeBroadcasts": {"b": true}, "T": {"type": "DT_FLOAT"}}}, {"name": "StatefulPartitionedCall/functional_1_1/MobileNetV3Small_1/expanded_conv_depthwise_pad_1/Pad", "op": "Pad", "input": ["StatefulPartitionedCall/functional_1_1/MobileNetV3Small_1/activation_18_1/mul", "StatefulPartitionedCall/functional_1_1/MobileNetV3Small_1/expanded_conv_depthwise_pad_1/Const"], "attr": {"Tpaddings": {"type": "DT_INT32"}, "T": {"type": "DT_FLOAT"}}}, {"name": "StatefulPartitionedCall/functional_1_1/MobileNetV3Small_1/expanded_conv_depthwise_1/depthwise", "op": "DepthwiseConv2dNative", "input": ["StatefulPartitionedCall/functional_1_1/MobileNetV3Small_1/expanded_conv_depthwise_pad_1/Pad", "StatefulPartitionedCall/functional_1_1/MobileNetV3Small_1/expanded_conv_depthwise_1/depthwise/ReadVariableOp"], "attr": {"padding": {"s": "VkFMSUQ="}, "data_format": {"s": "TkhXQw=="}, "T": {"type": "DT_FLOAT"}, "explicit_paddings": {"list": {}}, "dilations": {"list": {"i": ["1", "1", "1", "1"]}}, "strides": {"list": {"i": ["1", "2", "2", "1"]}}}}, {"name": "StatefulPartitionedCall/functional_1_1/MobileNetV3Small_1/expanded_conv_depthwise_bn_1/batchnorm/mul_1", "op": "Mul", "input": ["StatefulPartitionedCall/functional_1_1/MobileNetV3Small_1/expanded_conv_depthwise_1/depthwise", "StatefulPartitionedCall/functional_1_1/MobileNetV3Small_1/expanded_conv_depthwise_bn_1/batchnorm/mul"], "attr": {"T": {"type": "DT_FLOAT"}}}, {"name": "StatefulPartitionedCall/functional_1_1/MobileNetV3Small_1/expanded_conv_depthwise_bn_1/batchnorm/add_1", "op": "AddV2", "input": ["StatefulPartitionedCall/functional_1_1/MobileNetV3Small_1/expanded_conv_depthwise_bn_1/batchnorm/mul_1", "StatefulPartitionedCall/functional_1_1/MobileNetV3Small_1/expanded_conv_depthwise_bn_1/batchnorm/sub"], "attr": {"T": {"type": "DT_FLOAT"}}}, {"name": "StatefulPartitionedCall/functional_1_1/MobileNetV3Small_1/re_lu_14_1/Relu", "op": "Relu", "input": ["StatefulPartitionedCall/functional_1_1/MobileNetV3Small_1/expanded_conv_depthwise_bn_1/batchnorm/add_1"], "attr": {"T": {"type": "DT_FLOAT"}}}, {"name": "StatefulPartitionedCall/functional_1_1/MobileNetV3Small_1/expanded_conv_squeeze_excite_avg_pool_1/Mean", "op": "Mean", "input": ["StatefulPartitionedCall/functional_1_1/MobileNetV3Small_1/re_lu_14_1/Relu", "StatefulPartitionedCall/functional_1_1/MobileNetV3Small_1/expanded_conv_squeeze_excite_avg_pool_1/Mean/reduction_indices"], "attr": {"T": {"type": "DT_FLOAT"}, "Tidx": {"type": "DT_INT32"}, "keep_dims": {"b": true}}}, {"name": "StatefulPartitionedCall/functional_1_1/MobileNetV3Small_1/expanded_conv_squeeze_excite_relu_1/Relu", "op": "_FusedConv2D", "input": ["StatefulPartitionedCall/functional_1_1/MobileNetV3Small_1/expanded_conv_squeeze_excite_avg_pool_1/Mean", "StatefulPartitionedCall/functional_1_1/MobileNetV3Small_1/expanded_conv_squeeze_excite_conv_1/convolution/ReadVariableOp", "StatefulPartitionedCall/functional_1_1/MobileNetV3Small_1/expanded_conv_squeeze_excite_conv_1/Squeeze"], "device": "/device:CPU:0", "attr": {"num_host_args": {"i": "0"}, "data_format": {"s": "TkhXQw=="}, "filter_format": {"s": "SFdJTw=="}, "fused_ops": {"list": {"s": ["Qmlhc0FkZA==", "UmVsdQ=="]}}, "num_args": {"i": "1"}, "strides": {"list": {"i": ["1", "1", "1", "1"]}}, "TArgs": {"list": {"type": ["DT_FLOAT"]}}, "padding": {"s": "U0FNRQ=="}, "use_cudnn_on_gpu": {"b": true}, "leakyrelu_alpha": {"f": 0.2}, "epsilon": {"f": 0.0}, "T": {"type": "DT_FLOAT"}, "explicit_paddings": {"list": {}}, "dilations": {"list": {"i": ["1", "1", "1", "1"]}}}}, {"name": "StatefulPartitionedCall/functional_1_1/MobileNetV3Small_1/expanded_conv_squeeze_excite_conv_1_2/BiasAdd", "op": "_FusedConv2D", "input": ["StatefulPartitionedCall/functional_1_1/MobileNetV3Small_1/expanded_conv_squeeze_excite_relu_1/Relu", "StatefulPartitionedCall/functional_1_1/MobileNetV3Small_1/expanded_conv_squeeze_excite_conv_1_2/convolution/ReadVariableOp", "StatefulPartitionedCall/functional_1_1/MobileNetV3Small_1/expanded_conv_squeeze_excite_conv_1_2/Squeeze"], "device": "/device:CPU:0", "attr": {"num_host_args": {"i": "0"}, "data_format": {"s": "TkhXQw=="}, "filter_format": {"s": "SFdJTw=="}, "strides": {"list": {"i": ["1", "1", "1", "1"]}}, "num_args": {"i": "1"}, "fused_ops": {"list": {"s": ["Qmlhc0FkZA=="]}}, "TArgs": {"list": {"type": ["DT_FLOAT"]}}, "padding": {"s": "U0FNRQ=="}, "use_cudnn_on_gpu": {"b": true}, "leakyrelu_alpha": {"f": 0.2}, "epsilon": {"f": 0.0}, "T": {"type": "DT_FLOAT"}, "explicit_paddings": {"list": {}}, "dilations": {"list": {"i": ["1", "1", "1", "1"]}}}}, {"name": "StatefulPartitionedCall/functional_1_1/MobileNetV3Small_1/Add", "op": "AddV2", "input": ["StatefulPartitionedCall/functional_1_1/MobileNetV3Small_1/expanded_conv_squeeze_excite_conv_1_2/BiasAdd", "StatefulPartitionedCall/functional_1_1/MobileNetV3Small_1/Const"], "attr": {"T": {"type": "DT_FLOAT"}}}, {"name": "StatefulPartitionedCall/functional_1_1/MobileNetV3Small_1/re_lu_15_1/Relu6", "op": "Relu6", "input": ["StatefulPartitionedCall/functional_1_1/MobileNetV3Small_1/Add"], "attr": {"T": {"type": "DT_FLOAT"}}}, {"name": "StatefulPartitionedCall/functional_1_1/MobileNetV3Small_1/Mul", "op": "Mul", "input": ["StatefulPartitionedCall/functional_1_1/MobileNetV3Small_1/Const_1", "StatefulPartitionedCall/functional_1_1/MobileNetV3Small_1/re_lu_15_1/Relu6"], "attr": {"_grappler_ArithmeticOptimizer_MinimizeBroadcasts": {"b": true}, "T": {"type": "DT_FLOAT"}}}, {"name": "StatefulPartitionedCall/functional_1_1/MobileNetV3Small_1/expanded_conv_squeeze_excite_mul_1/Mul", "op": "Mul", "input": ["StatefulPartitionedCall/functional_1_1/MobileNetV3Small_1/Mul", "StatefulPartitionedCall/functional_1_1/MobileNetV3Small_1/re_lu_14_1/Relu"], "attr": {"_grappler_ArithmeticOptimizer_MinimizeBroadcasts": {"b": true}, "T": {"type": "DT_FLOAT"}}}, {"name": "StatefulPartitionedCall/functional_1_1/MobileNetV3Small_1/expanded_conv_project_bn_1/batchnorm/add_1", "op": "_FusedConv2D", "input": ["StatefulPartitionedCall/functional_1_1/MobileNetV3Small_1/expanded_conv_squeeze_excite_mul_1/Mul", "StatefulPartitionedCall/functional_1_1/MobileNetV3Small_1/expanded_conv_project_1/convolution/merged_input", "StatefulPartitionedCall/functional_1_1/MobileNetV3Small_1/expanded_conv_project_bn_1/batchnorm/sub"], "device": "/device:CPU:0", "attr": {"num_host_args": {"i": "0"}, "data_format": {"s": "TkhXQw=="}, "filter_format": {"s": "SFdJTw=="}, "fused_ops": {"list": {"s": ["Qmlhc0FkZA=="]}}, "num_args": {"i": "1"}, "strides": {"list": {"i": ["1", "1", "1", "1"]}}, "TArgs": {"list": {"type": ["DT_FLOAT"]}}, "padding": {"s": "U0FNRQ=="}, "use_cudnn_on_gpu": {"b": true}, "leakyrelu_alpha": {"f": 0.2}, "epsilon": {"f": 0.0}, "T": {"type": "DT_FLOAT"}, "explicit_paddings": {"list": {}}, "dilations": {"list": {"i": ["1", "1", "1", "1"]}}}}, {"name": "StatefulPartitionedCall/functional_1_1/MobileNetV3Small_1/re_lu_16_1/Relu", "op": "_FusedConv2D", "input": ["StatefulPartitionedCall/functional_1_1/MobileNetV3Small_1/expanded_conv_project_bn_1/batchnorm/add_1", "StatefulPartitionedCall/functional_1_1/MobileNetV3Small_1/expanded_conv_1_expand_1/convolution/merged_input", "StatefulPartitionedCall/functional_1_1/MobileNetV3Small_1/expanded_conv_1_expand_bn_1/batchnorm/sub"], "device": "/device:CPU:0", "attr": {"num_host_args": {"i": "0"}, "data_format": {"s": "TkhXQw=="}, "filter_format": {"s": "SFdJTw=="}, "fused_ops": {"list": {"s": ["Qmlhc0FkZA==", "UmVsdQ=="]}}, "num_args": {"i": "1"}, "strides": {"list": {"i": ["1", "1", "1", "1"]}}, "TArgs": {"list": {"type": ["DT_FLOAT"]}}, "padding": {"s": "U0FNRQ=="}, "use_cudnn_on_gpu": {"b": true}, "leakyrelu_alpha": {"f": 0.2}, "epsilon": {"f": 0.0}, "T": {"type": "DT_FLOAT"}, "explicit_paddings": {"list": {}}, "dilations": {"list": {"i": ["1", "1", "1", "1"]}}}}, {"name": "StatefulPartitionedCall/functional_1_1/MobileNetV3Small_1/expanded_conv_1_depthwise_pad_1/Pad", "op": "Pad", "input": ["StatefulPartitionedCall/functional_1_1/MobileNetV3Small_1/re_lu_16_1/Relu", "StatefulPartitionedCall/functional_1_1/MobileNetV3Small_1/expanded_conv_1_depthwise_pad_1/Const"], "attr": {"Tpaddings": {"type": "DT_INT32"}, "T": {"type": "DT_FLOAT"}}}, {"name": "StatefulPartitionedCall/functional_1_1/MobileNetV3Small_1/expanded_conv_1_depthwise_1/depthwise", "op": "DepthwiseConv2dNative", "input": ["StatefulPartitionedCall/functional_1_1/MobileNetV3Small_1/expanded_conv_1_depthwise_pad_1/Pad", "StatefulPartitionedCall/functional_1_1/MobileNetV3Small_1/expanded_conv_1_depthwise_1/depthwise/ReadVariableOp"], "attr": {"padding": {"s": "VkFMSUQ="}, "data_format": {"s": "TkhXQw=="}, "T": {"type": "DT_FLOAT"}, "explicit_paddings": {"list": {}}, "dilations": {"list": {"i": ["1", "1", "1", "1"]}}, "strides": {"list": {"i": ["1", "2", "2", "1"]}}}}, {"name": "StatefulPartitionedCall/functional_1_1/MobileNetV3Small_1/expanded_conv_1_depthwise_bn_1/batchnorm/mul_1", "op": "Mul", "input": ["StatefulPartitionedCall/functional_1_1/MobileNetV3Small_1/expanded_conv_1_depthwise_1/depthwise", "StatefulPartitionedCall/functional_1_1/MobileNetV3Small_1/expanded_conv_1_depthwise_bn_1/batchnorm/mul"], "attr": {"T": {"type": "DT_FLOAT"}}}, {"name": "StatefulPartitionedCall/functional_1_1/MobileNetV3Small_1/expanded_conv_1_depthwise_bn_1/batchnorm/add_1", "op": "AddV2", "input": ["StatefulPartitionedCall/functional_1_1/MobileNetV3Small_1/expanded_conv_1_depthwise_bn_1/batchnorm/mul_1", "StatefulPartitionedCall/functional_1_1/MobileNetV3Small_1/expanded_conv_1_depthwise_bn_1/batchnorm/sub"], "attr": {"T": {"type": "DT_FLOAT"}}}, {"name": "StatefulPartitionedCall/functional_1_1/MobileNetV3Small_1/re_lu_17_1/Relu", "op": "Relu", "input": ["StatefulPartitionedCall/functional_1_1/MobileNetV3Small_1/expanded_conv_1_depthwise_bn_1/batchnorm/add_1"], "attr": {"T": {"type": "DT_FLOAT"}}}, {"name": "StatefulPartitionedCall/functional_1_1/MobileNetV3Small_1/expanded_conv_1_project_bn_1/batchnorm/add_1", "op": "_FusedConv2D", "input": ["StatefulPartitionedCall/functional_1_1/MobileNetV3Small_1/re_lu_17_1/Relu", "StatefulPartitionedCall/functional_1_1/MobileNetV3Small_1/expanded_conv_1_project_1/convolution/merged_input", "StatefulPartitionedCall/functional_1_1/MobileNetV3Small_1/expanded_conv_1_project_bn_1/batchnorm/sub"], "device": "/device:CPU:0", "attr": {"num_host_args": {"i": "0"}, "data_format": {"s": "TkhXQw=="}, "filter_format": {"s": "SFdJTw=="}, "strides": {"list": {"i": ["1", "1", "1", "1"]}}, "num_args": {"i": "1"}, "fused_ops": {"list": {"s": ["Qmlhc0FkZA=="]}}, "TArgs": {"list": {"type": ["DT_FLOAT"]}}, "padding": {"s": "U0FNRQ=="}, "use_cudnn_on_gpu": {"b": true}, "leakyrelu_alpha": {"f": 0.2}, "epsilon": {"f": 0.0}, "T": {"type": "DT_FLOAT"}, "explicit_paddings": {"list": {}}, "dilations": {"list": {"i": ["1", "1", "1", "1"]}}}}, {"name": "StatefulPartitionedCall/functional_1_1/MobileNetV3Small_1/re_lu_18_1/Relu", "op": "_FusedConv2D", "input": ["StatefulPartitionedCall/functional_1_1/MobileNetV3Small_1/expanded_conv_1_project_bn_1/batchnorm/add_1", "StatefulPartitionedCall/functional_1_1/MobileNetV3Small_1/expanded_conv_2_expand_1/convolution/merged_input", "StatefulPartitionedCall/functional_1_1/MobileNetV3Small_1/expanded_conv_2_expand_bn_1/batchnorm/sub"], "device": "/device:CPU:0", "attr": {"num_host_args": {"i": "0"}, "data_format": {"s": "TkhXQw=="}, "filter_format": {"s": "SFdJTw=="}, "strides": {"list": {"i": ["1", "1", "1", "1"]}}, "num_args": {"i": "1"}, "fused_ops": {"list": {"s": ["Qmlhc0FkZA==", "UmVsdQ=="]}}, "TArgs": {"list": {"type": ["DT_FLOAT"]}}, "padding": {"s": "U0FNRQ=="}, "use_cudnn_on_gpu": {"b": true}, "leakyrelu_alpha": {"f": 0.2}, "epsilon": {"f": 0.0}, "T": {"type": "DT_FLOAT"}, "explicit_paddings": {"list": {}}, "dilations": {"list": {"i": ["1", "1", "1", "1"]}}}}, {"name": "StatefulPartitionedCall/functional_1_1/MobileNetV3Small_1/expanded_conv_2_depthwise_1/depthwise", "op": "DepthwiseConv2dNative", "input": ["StatefulPartitionedCall/functional_1_1/MobileNetV3Small_1/re_lu_18_1/Relu", "StatefulPartitionedCall/functional_1_1/MobileNetV3Small_1/expanded_conv_2_depthwise_1/depthwise/ReadVariableOp"], "attr": {"padding": {"s": "U0FNRQ=="}, "data_format": {"s": "TkhXQw=="}, "T": {"type": "DT_FLOAT"}, "explicit_paddings": {"list": {}}, "dilations": {"list": {"i": ["1", "1", "1", "1"]}}, "strides": {"list": {"i": ["1", "1", "1", "1"]}}}}, {"name": "StatefulPartitionedCall/functional_1_1/MobileNetV3Small_1/expanded_conv_2_depthwise_bn_1/batchnorm/mul_1", "op": "Mul", "input": ["StatefulPartitionedCall/functional_1_1/MobileNetV3Small_1/expanded_conv_2_depthwise_1/depthwise", "StatefulPartitionedCall/functional_1_1/MobileNetV3Small_1/expanded_conv_2_depthwise_bn_1/batchnorm/mul"], "attr": {"T": {"type": "DT_FLOAT"}}}, {"name": "StatefulPartitionedCall/functional_1_1/MobileNetV3Small_1/expanded_conv_2_depthwise_bn_1/batchnorm/add_1", "op": "AddV2", "input": ["StatefulPartitionedCall/functional_1_1/MobileNetV3Small_1/expanded_conv_2_depthwise_bn_1/batchnorm/mul_1", "StatefulPartitionedCall/functional_1_1/MobileNetV3Small_1/expanded_conv_2_depthwise_bn_1/batchnorm/sub"], "attr": {"T": {"type": "DT_FLOAT"}}}, {"name": "StatefulPartitionedCall/functional_1_1/MobileNetV3Small_1/re_lu_19_1/Relu", "op": "Relu", "input": ["StatefulPartitionedCall/functional_1_1/MobileNetV3Small_1/expanded_conv_2_depthwise_bn_1/batchnorm/add_1"], "attr": {"T": {"type": "DT_FLOAT"}}}, {"name": "StatefulPartitionedCall/functional_1_1/MobileNetV3Small_1/expanded_conv_2_project_bn_1/batchnorm/mul_1", "op": "Conv2D", "input": ["StatefulPartitionedCall/functional_1_1/MobileNetV3Small_1/re_lu_19_1/Relu", "StatefulPartitionedCall/functional_1_1/MobileNetV3Small_1/expanded_conv_2_project_1/convolution/merged_input"], "device": "/device:CPU:0", "attr": {"padding": {"s": "U0FNRQ=="}, "data_format": {"s": "TkhXQw=="}, "strides": {"list": {"i": ["1", "1", "1", "1"]}}, "use_cudnn_on_gpu": {"b": true}, "T": {"type": "DT_FLOAT"}, "explicit_paddings": {"list": {}}, "dilations": {"list": {"i": ["1", "1", "1", "1"]}}}}, {"name": "StatefulPartitionedCall/functional_1_1/MobileNetV3Small_1/expanded_conv_2_add_1/ArithmeticOptimizer/AddOpsRewrite_Leaf_1_Add", "op": "AddN", "input": ["StatefulPartitionedCall/functional_1_1/MobileNetV3Small_1/expanded_conv_1_project_bn_1/batchnorm/add_1", "StatefulPartitionedCall/functional_1_1/MobileNetV3Small_1/expanded_conv_2_project_bn_1/batchnorm/mul_1"], "attr": {"N": {"i": "2"}, "T": {"type": "DT_FLOAT"}, "_grappler_ArithmeticOptimizer_AddOpsRewriteStage": {"b": true}}}, {"name": "StatefulPartitionedCall/functional_1_1/MobileNetV3Small_1/expanded_conv_2_add_1/ArithmeticOptimizer/AddOpsRewrite_Add", "op": "AddV2", "input": ["StatefulPartitionedCall/functional_1_1/MobileNetV3Small_1/expanded_conv_2_project_bn_1/batchnorm/sub", "StatefulPartitionedCall/functional_1_1/MobileNetV3Small_1/expanded_conv_2_add_1/ArithmeticOptimizer/AddOpsRewrite_Leaf_1_Add"], "attr": {"T": {"type": "DT_FLOAT"}, "_grappler_ArithmeticOptimizer_AddOpsRewriteStage": {"b": true}}}, {"name": "StatefulPartitionedCall/functional_1_1/MobileNetV3Small_1/expanded_conv_3_expand_bn_1/batchnorm/add_1", "op": "_FusedConv2D", "input": ["StatefulPartitionedCall/functional_1_1/MobileNetV3Small_1/expanded_conv_2_add_1/ArithmeticOptimizer/AddOpsRewrite_Add", "StatefulPartitionedCall/functional_1_1/MobileNetV3Small_1/expanded_conv_3_expand_1/convolution/merged_input", "StatefulPartitionedCall/functional_1_1/MobileNetV3Small_1/expanded_conv_3_expand_bn_1/batchnorm/sub"], "device": "/device:CPU:0", "attr": {"num_host_args": {"i": "0"}, "data_format": {"s": "TkhXQw=="}, "filter_format": {"s": "SFdJTw=="}, "strides": {"list": {"i": ["1", "1", "1", "1"]}}, "num_args": {"i": "1"}, "fused_ops": {"list": {"s": ["Qmlhc0FkZA=="]}}, "TArgs": {"list": {"type": ["DT_FLOAT"]}}, "padding": {"s": "U0FNRQ=="}, "use_cudnn_on_gpu": {"b": true}, "leakyrelu_alpha": {"f": 0.2}, "epsilon": {"f": 0.0}, "T": {"type": "DT_FLOAT"}, "explicit_paddings": {"list": {}}, "dilations": {"list": {"i": ["1", "1", "1", "1"]}}}}, {"name": "StatefulPartitionedCall/functional_1_1/MobileNetV3Small_1/activation_19_1/truediv", "op": "Mul", "input": ["ConstantFolding/StatefulPartitionedCall/functional_1_1/MobileNetV3Small_1/activation_19_1/truediv_recip", "StatefulPartitionedCall/functional_1_1/MobileNetV3Small_1/expanded_conv_3_expand_bn_1/batchnorm/add_1"], "attr": {"_grappler_ArithmeticOptimizer_MinimizeBroadcasts": {"b": true}, "T": {"type": "DT_FLOAT"}}}, {"name": "StatefulPartitionedCall/functional_1_1/MobileNetV3Small_1/activation_19_1/add", "op": "AddV2", "input": ["StatefulPartitionedCall/functional_1_1/MobileNetV3Small_1/expanded_conv_3_expand_bn_1/batchnorm/add_1", "StatefulPartitionedCall/functional_1_1/MobileNetV3Small_1/activation_19_1/Const"], "attr": {"T": {"type": "DT_FLOAT"}}}, {"name": "StatefulPartitionedCall/functional_1_1/MobileNetV3Small_1/activation_19_1/Relu6", "op": "Relu6", "input": ["StatefulPartitionedCall/functional_1_1/MobileNetV3Small_1/activation_19_1/add"], "attr": {"T": {"type": "DT_FLOAT"}}}, {"name": "StatefulPartitionedCall/functional_1_1/MobileNetV3Small_1/activation_19_1/mul", "op": "Mul", "input": ["StatefulPartitionedCall/functional_1_1/MobileNetV3Small_1/activation_19_1/truediv", "StatefulPartitionedCall/functional_1_1/MobileNetV3Small_1/activation_19_1/Relu6"], "attr": {"_grappler_ArithmeticOptimizer_MinimizeBroadcasts": {"b": true}, "T": {"type": "DT_FLOAT"}}}, {"name": "StatefulPartitionedCall/functional_1_1/MobileNetV3Small_1/expanded_conv_3_depthwise_pad_1/Pad", "op": "Pad", "input": ["StatefulPartitionedCall/functional_1_1/MobileNetV3Small_1/activation_19_1/mul", "StatefulPartitionedCall/functional_1_1/MobileNetV3Small_1/expanded_conv_3_depthwise_pad_1/Const"], "attr": {"Tpaddings": {"type": "DT_INT32"}, "T": {"type": "DT_FLOAT"}}}, {"name": "StatefulPartitionedCall/functional_1_1/MobileNetV3Small_1/expanded_conv_3_depthwise_1/depthwise", "op": "DepthwiseConv2dNative", "input": ["StatefulPartitionedCall/functional_1_1/MobileNetV3Small_1/expanded_conv_3_depthwise_pad_1/Pad", "StatefulPartitionedCall/functional_1_1/MobileNetV3Small_1/expanded_conv_3_depthwise_1/depthwise/ReadVariableOp"], "attr": {"padding": {"s": "VkFMSUQ="}, "data_format": {"s": "TkhXQw=="}, "T": {"type": "DT_FLOAT"}, "explicit_paddings": {"list": {}}, "dilations": {"list": {"i": ["1", "1", "1", "1"]}}, "strides": {"list": {"i": ["1", "2", "2", "1"]}}}}, {"name": "StatefulPartitionedCall/functional_1_1/MobileNetV3Small_1/expanded_conv_3_depthwise_bn_1/batchnorm/mul_1", "op": "Mul", "input": ["StatefulPartitionedCall/functional_1_1/MobileNetV3Small_1/expanded_conv_3_depthwise_1/depthwise", "StatefulPartitionedCall/functional_1_1/MobileNetV3Small_1/expanded_conv_3_depthwise_bn_1/batchnorm/mul"], "attr": {"T": {"type": "DT_FLOAT"}}}, {"name": "StatefulPartitionedCall/functional_1_1/MobileNetV3Small_1/expanded_conv_3_depthwise_bn_1/batchnorm/add_1", "op": "AddV2", "input": ["StatefulPartitionedCall/functional_1_1/MobileNetV3Small_1/expanded_conv_3_depthwise_bn_1/batchnorm/mul_1", "StatefulPartitionedCall/functional_1_1/MobileNetV3Small_1/expanded_conv_3_depthwise_bn_1/batchnorm/sub"], "attr": {"T": {"type": "DT_FLOAT"}}}, {"name": "StatefulPartitionedCall/functional_1_1/MobileNetV3Small_1/activation_20_1/truediv", "op": "Mul", "input": ["ConstantFolding/StatefulPartitionedCall/functional_1_1/MobileNetV3Small_1/activation_20_1/truediv_recip", "StatefulPartitionedCall/functional_1_1/MobileNetV3Small_1/expanded_conv_3_depthwise_bn_1/batchnorm/add_1"], "attr": {"_grappler_ArithmeticOptimizer_MinimizeBroadcasts": {"b": true}, "T": {"type": "DT_FLOAT"}}}, {"name": "StatefulPartitionedCall/functional_1_1/MobileNetV3Small_1/activation_20_1/add", "op": "AddV2", "input": ["StatefulPartitionedCall/functional_1_1/MobileNetV3Small_1/expanded_conv_3_depthwise_bn_1/batchnorm/add_1", "StatefulPartitionedCall/functional_1_1/MobileNetV3Small_1/activation_20_1/Const"], "attr": {"T": {"type": "DT_FLOAT"}}}, {"name": "StatefulPartitionedCall/functional_1_1/MobileNetV3Small_1/activation_20_1/Relu6", "op": "Relu6", "input": ["StatefulPartitionedCall/functional_1_1/MobileNetV3Small_1/activation_20_1/add"], "attr": {"T": {"type": "DT_FLOAT"}}}, {"name": "StatefulPartitionedCall/functional_1_1/MobileNetV3Small_1/activation_20_1/mul", "op": "Mul", "input": ["StatefulPartitionedCall/functional_1_1/MobileNetV3Small_1/activation_20_1/truediv", "StatefulPartitionedCall/functional_1_1/MobileNetV3Small_1/activation_20_1/Relu6"], "attr": {"_grappler_ArithmeticOptimizer_MinimizeBroadcasts": {"b": true}, "T": {"type": "DT_FLOAT"}}}, {"name": "StatefulPartitionedCall/functional_1_1/MobileNetV3Small_1/expanded_conv_3_squeeze_excite_avg_pool_1/Mean", "op": "Mean", "input": ["StatefulPartitionedCall/functional_1_1/MobileNetV3Small_1/activation_20_1/mul", "StatefulPartitionedCall/functional_1_1/MobileNetV3Small_1/expanded_conv_3_squeeze_excite_avg_pool_1/Mean/reduction_indices"], "attr": {"Tidx": {"type": "DT_INT32"}, "T": {"type": "DT_FLOAT"}, "keep_dims": {"b": true}}}, {"name": "StatefulPartitionedCall/functional_1_1/MobileNetV3Small_1/expanded_conv_3_squeeze_excite_relu_1/Relu", "op": "_FusedConv2D", "input": ["StatefulPartitionedCall/functional_1_1/MobileNetV3Small_1/expanded_conv_3_squeeze_excite_avg_pool_1/Mean", "StatefulPartitionedCall/functional_1_1/MobileNetV3Small_1/expanded_conv_3_squeeze_excite_conv_1/convolution/ReadVariableOp", "StatefulPartitionedCall/functional_1_1/MobileNetV3Small_1/expanded_conv_3_squeeze_excite_conv_1/Squeeze"], "device": "/device:CPU:0", "attr": {"num_host_args": {"i": "0"}, "data_format": {"s": "TkhXQw=="}, "filter_format": {"s": "SFdJTw=="}, "fused_ops": {"list": {"s": ["Qmlhc0FkZA==", "UmVsdQ=="]}}, "num_args": {"i": "1"}, "strides": {"list": {"i": ["1", "1", "1", "1"]}}, "TArgs": {"list": {"type": ["DT_FLOAT"]}}, "padding": {"s": "U0FNRQ=="}, "use_cudnn_on_gpu": {"b": true}, "leakyrelu_alpha": {"f": 0.2}, "epsilon": {"f": 0.0}, "T": {"type": "DT_FLOAT"}, "explicit_paddings": {"list": {}}, "dilations": {"list": {"i": ["1", "1", "1", "1"]}}}}, {"name": "StatefulPartitionedCall/functional_1_1/MobileNetV3Small_1/expanded_conv_3_squeeze_excite_conv_1_2/BiasAdd", "op": "_FusedConv2D", "input": ["StatefulPartitionedCall/functional_1_1/MobileNetV3Small_1/expanded_conv_3_squeeze_excite_relu_1/Relu", "StatefulPartitionedCall/functional_1_1/MobileNetV3Small_1/expanded_conv_3_squeeze_excite_conv_1_2/convolution/ReadVariableOp", "StatefulPartitionedCall/functional_1_1/MobileNetV3Small_1/expanded_conv_3_squeeze_excite_conv_1_2/Squeeze"], "device": "/device:CPU:0", "attr": {"num_host_args": {"i": "0"}, "data_format": {"s": "TkhXQw=="}, "filter_format": {"s": "SFdJTw=="}, "strides": {"list": {"i": ["1", "1", "1", "1"]}}, "num_args": {"i": "1"}, "fused_ops": {"list": {"s": ["Qmlhc0FkZA=="]}}, "TArgs": {"list": {"type": ["DT_FLOAT"]}}, "padding": {"s": "U0FNRQ=="}, "use_cudnn_on_gpu": {"b": true}, "leakyrelu_alpha": {"f": 0.2}, "epsilon": {"f": 0.0}, "T": {"type": "DT_FLOAT"}, "explicit_paddings": {"list": {}}, "dilations": {"list": {"i": ["1", "1", "1", "1"]}}}}, {"name": "StatefulPartitionedCall/functional_1_1/MobileNetV3Small_1/Add_1", "op": "AddV2", "input": ["StatefulPartitionedCall/functional_1_1/MobileNetV3Small_1/expanded_conv_3_squeeze_excite_conv_1_2/BiasAdd", "StatefulPartitionedCall/functional_1_1/MobileNetV3Small_1/Const_2"], "attr": {"T": {"type": "DT_FLOAT"}}}, {"name": "StatefulPartitionedCall/functional_1_1/MobileNetV3Small_1/re_lu_20_1/Relu6", "op": "Relu6", "input": ["StatefulPartitionedCall/functional_1_1/MobileNetV3Small_1/Add_1"], "attr": {"T": {"type": "DT_FLOAT"}}}, {"name": "StatefulPartitionedCall/functional_1_1/MobileNetV3Small_1/Mul_1", "op": "Mul", "input": ["StatefulPartitionedCall/functional_1_1/MobileNetV3Small_1/Const_3", "StatefulPartitionedCall/functional_1_1/MobileNetV3Small_1/re_lu_20_1/Relu6"], "attr": {"_grappler_ArithmeticOptimizer_MinimizeBroadcasts": {"b": true}, "T": {"type": "DT_FLOAT"}}}, {"name": "StatefulPartitionedCall/functional_1_1/MobileNetV3Small_1/expanded_conv_3_squeeze_excite_mul_1/Mul", "op": "Mul", "input": ["StatefulPartitionedCall/functional_1_1/MobileNetV3Small_1/Mul_1", "StatefulPartitionedCall/functional_1_1/MobileNetV3Small_1/activation_20_1/mul"], "attr": {"_grappler_ArithmeticOptimizer_MinimizeBroadcasts": {"b": true}, "T": {"type": "DT_FLOAT"}}}, {"name": "StatefulPartitionedCall/functional_1_1/MobileNetV3Small_1/expanded_conv_3_project_bn_1/batchnorm/add_1", "op": "_FusedConv2D", "input": ["StatefulPartitionedCall/functional_1_1/MobileNetV3Small_1/expanded_conv_3_squeeze_excite_mul_1/Mul", "StatefulPartitionedCall/functional_1_1/MobileNetV3Small_1/expanded_conv_3_project_1/convolution/merged_input", "StatefulPartitionedCall/functional_1_1/MobileNetV3Small_1/expanded_conv_3_project_bn_1/batchnorm/sub"], "device": "/device:CPU:0", "attr": {"num_host_args": {"i": "0"}, "data_format": {"s": "TkhXQw=="}, "filter_format": {"s": "SFdJTw=="}, "strides": {"list": {"i": ["1", "1", "1", "1"]}}, "num_args": {"i": "1"}, "fused_ops": {"list": {"s": ["Qmlhc0FkZA=="]}}, "TArgs": {"list": {"type": ["DT_FLOAT"]}}, "padding": {"s": "U0FNRQ=="}, "use_cudnn_on_gpu": {"b": true}, "leakyrelu_alpha": {"f": 0.2}, "epsilon": {"f": 0.0}, "T": {"type": "DT_FLOAT"}, "explicit_paddings": {"list": {}}, "dilations": {"list": {"i": ["1", "1", "1", "1"]}}}}, {"name": "StatefulPartitionedCall/functional_1_1/MobileNetV3Small_1/expanded_conv_4_expand_bn_1/batchnorm/add_1", "op": "_FusedConv2D", "input": ["StatefulPartitionedCall/functional_1_1/MobileNetV3Small_1/expanded_conv_3_project_bn_1/batchnorm/add_1", "StatefulPartitionedCall/functional_1_1/MobileNetV3Small_1/expanded_conv_4_expand_1/convolution/merged_input", "StatefulPartitionedCall/functional_1_1/MobileNetV3Small_1/expanded_conv_4_expand_bn_1/batchnorm/sub"], "device": "/device:CPU:0", "attr": {"num_host_args": {"i": "0"}, "data_format": {"s": "TkhXQw=="}, "filter_format": {"s": "SFdJTw=="}, "fused_ops": {"list": {"s": ["Qmlhc0FkZA=="]}}, "num_args": {"i": "1"}, "strides": {"list": {"i": ["1", "1", "1", "1"]}}, "TArgs": {"list": {"type": ["DT_FLOAT"]}}, "padding": {"s": "U0FNRQ=="}, "use_cudnn_on_gpu": {"b": true}, "leakyrelu_alpha": {"f": 0.2}, "epsilon": {"f": 0.0}, "T": {"type": "DT_FLOAT"}, "explicit_paddings": {"list": {}}, "dilations": {"list": {"i": ["1", "1", "1", "1"]}}}}, {"name": "StatefulPartitionedCall/functional_1_1/MobileNetV3Small_1/activation_21_1/truediv", "op": "Mul", "input": ["ConstantFolding/StatefulPartitionedCall/functional_1_1/MobileNetV3Small_1/activation_21_1/truediv_recip", "StatefulPartitionedCall/functional_1_1/MobileNetV3Small_1/expanded_conv_4_expand_bn_1/batchnorm/add_1"], "attr": {"_grappler_ArithmeticOptimizer_MinimizeBroadcasts": {"b": true}, "T": {"type": "DT_FLOAT"}}}, {"name": "StatefulPartitionedCall/functional_1_1/MobileNetV3Small_1/activation_21_1/add", "op": "AddV2", "input": ["StatefulPartitionedCall/functional_1_1/MobileNetV3Small_1/expanded_conv_4_expand_bn_1/batchnorm/add_1", "StatefulPartitionedCall/functional_1_1/MobileNetV3Small_1/activation_21_1/Const"], "attr": {"T": {"type": "DT_FLOAT"}}}, {"name": "StatefulPartitionedCall/functional_1_1/MobileNetV3Small_1/activation_21_1/Relu6", "op": "Relu6", "input": ["StatefulPartitionedCall/functional_1_1/MobileNetV3Small_1/activation_21_1/add"], "attr": {"T": {"type": "DT_FLOAT"}}}, {"name": "StatefulPartitionedCall/functional_1_1/MobileNetV3Small_1/activation_21_1/mul", "op": "Mul", "input": ["StatefulPartitionedCall/functional_1_1/MobileNetV3Small_1/activation_21_1/truediv", "StatefulPartitionedCall/functional_1_1/MobileNetV3Small_1/activation_21_1/Relu6"], "attr": {"_grappler_ArithmeticOptimizer_MinimizeBroadcasts": {"b": true}, "T": {"type": "DT_FLOAT"}}}, {"name": "StatefulPartitionedCall/functional_1_1/MobileNetV3Small_1/expanded_conv_4_depthwise_1/depthwise", "op": "DepthwiseConv2dNative", "input": ["StatefulPartitionedCall/functional_1_1/MobileNetV3Small_1/activation_21_1/mul", "StatefulPartitionedCall/functional_1_1/MobileNetV3Small_1/expanded_conv_4_depthwise_1/depthwise/ReadVariableOp"], "attr": {"padding": {"s": "U0FNRQ=="}, "data_format": {"s": "TkhXQw=="}, "T": {"type": "DT_FLOAT"}, "explicit_paddings": {"list": {}}, "dilations": {"list": {"i": ["1", "1", "1", "1"]}}, "strides": {"list": {"i": ["1", "1", "1", "1"]}}}}, {"name": "StatefulPartitionedCall/functional_1_1/MobileNetV3Small_1/expanded_conv_4_depthwise_bn_1/batchnorm/mul_1", "op": "Mul", "input": ["StatefulPartitionedCall/functional_1_1/MobileNetV3Small_1/expanded_conv_4_depthwise_1/depthwise", "StatefulPartitionedCall/functional_1_1/MobileNetV3Small_1/expanded_conv_4_depthwise_bn_1/batchnorm/mul"], "attr": {"T": {"type": "DT_FLOAT"}}}, {"name": "StatefulPartitionedCall/functional_1_1/MobileNetV3Small_1/expanded_conv_4_depthwise_bn_1/batchnorm/add_1", "op": "AddV2", "input": ["StatefulPartitionedCall/functional_1_1/MobileNetV3Small_1/expanded_conv_4_depthwise_bn_1/batchnorm/mul_1", "StatefulPartitionedCall/functional_1_1/MobileNetV3Small_1/expanded_conv_4_depthwise_bn_1/batchnorm/sub"], "attr": {"T": {"type": "DT_FLOAT"}}}, {"name": "StatefulPartitionedCall/functional_1_1/MobileNetV3Small_1/activation_22_1/truediv", "op": "Mul", "input": ["ConstantFolding/StatefulPartitionedCall/functional_1_1/MobileNetV3Small_1/activation_22_1/truediv_recip", "StatefulPartitionedCall/functional_1_1/MobileNetV3Small_1/expanded_conv_4_depthwise_bn_1/batchnorm/add_1"], "attr": {"_grappler_ArithmeticOptimizer_MinimizeBroadcasts": {"b": true}, "T": {"type": "DT_FLOAT"}}}, {"name": "StatefulPartitionedCall/functional_1_1/MobileNetV3Small_1/activation_22_1/add", "op": "AddV2", "input": ["StatefulPartitionedCall/functional_1_1/MobileNetV3Small_1/expanded_conv_4_depthwise_bn_1/batchnorm/add_1", "StatefulPartitionedCall/functional_1_1/MobileNetV3Small_1/activation_22_1/Const"], "attr": {"T": {"type": "DT_FLOAT"}}}, {"name": "StatefulPartitionedCall/functional_1_1/MobileNetV3Small_1/activation_22_1/Relu6", "op": "Relu6", "input": ["StatefulPartitionedCall/functional_1_1/MobileNetV3Small_1/activation_22_1/add"], "attr": {"T": {"type": "DT_FLOAT"}}}, {"name": "StatefulPartitionedCall/functional_1_1/MobileNetV3Small_1/activation_22_1/mul", "op": "Mul", "input": ["StatefulPartitionedCall/functional_1_1/MobileNetV3Small_1/activation_22_1/truediv", "StatefulPartitionedCall/functional_1_1/MobileNetV3Small_1/activation_22_1/Relu6"], "attr": {"_grappler_ArithmeticOptimizer_MinimizeBroadcasts": {"b": true}, "T": {"type": "DT_FLOAT"}}}, {"name": "StatefulPartitionedCall/functional_1_1/MobileNetV3Small_1/expanded_conv_4_squeeze_excite_avg_pool_1/Mean", "op": "Mean", "input": ["StatefulPartitionedCall/functional_1_1/MobileNetV3Small_1/activation_22_1/mul", "StatefulPartitionedCall/functional_1_1/MobileNetV3Small_1/expanded_conv_4_squeeze_excite_avg_pool_1/Mean/reduction_indices"], "attr": {"T": {"type": "DT_FLOAT"}, "Tidx": {"type": "DT_INT32"}, "keep_dims": {"b": true}}}, {"name": "StatefulPartitionedCall/functional_1_1/MobileNetV3Small_1/expanded_conv_4_squeeze_excite_relu_1/Relu", "op": "_FusedConv2D", "input": ["StatefulPartitionedCall/functional_1_1/MobileNetV3Small_1/expanded_conv_4_squeeze_excite_avg_pool_1/Mean", "StatefulPartitionedCall/functional_1_1/MobileNetV3Small_1/expanded_conv_4_squeeze_excite_conv_1/convolution/ReadVariableOp", "StatefulPartitionedCall/functional_1_1/MobileNetV3Small_1/expanded_conv_4_squeeze_excite_conv_1/Squeeze"], "device": "/device:CPU:0", "attr": {"num_host_args": {"i": "0"}, "data_format": {"s": "TkhXQw=="}, "filter_format": {"s": "SFdJTw=="}, "strides": {"list": {"i": ["1", "1", "1", "1"]}}, "num_args": {"i": "1"}, "fused_ops": {"list": {"s": ["Qmlhc0FkZA==", "UmVsdQ=="]}}, "TArgs": {"list": {"type": ["DT_FLOAT"]}}, "padding": {"s": "U0FNRQ=="}, "use_cudnn_on_gpu": {"b": true}, "leakyrelu_alpha": {"f": 0.2}, "epsilon": {"f": 0.0}, "T": {"type": "DT_FLOAT"}, "explicit_paddings": {"list": {}}, "dilations": {"list": {"i": ["1", "1", "1", "1"]}}}}, {"name": "StatefulPartitionedCall/functional_1_1/MobileNetV3Small_1/expanded_conv_4_squeeze_excite_conv_1_2/BiasAdd", "op": "_FusedConv2D", "input": ["StatefulPartitionedCall/functional_1_1/MobileNetV3Small_1/expanded_conv_4_squeeze_excite_relu_1/Relu", "StatefulPartitionedCall/functional_1_1/MobileNetV3Small_1/expanded_conv_4_squeeze_excite_conv_1_2/convolution/ReadVariableOp", "StatefulPartitionedCall/functional_1_1/MobileNetV3Small_1/expanded_conv_4_squeeze_excite_conv_1_2/Squeeze"], "device": "/device:CPU:0", "attr": {"num_host_args": {"i": "0"}, "data_format": {"s": "TkhXQw=="}, "filter_format": {"s": "SFdJTw=="}, "fused_ops": {"list": {"s": ["Qmlhc0FkZA=="]}}, "num_args": {"i": "1"}, "strides": {"list": {"i": ["1", "1", "1", "1"]}}, "TArgs": {"list": {"type": ["DT_FLOAT"]}}, "padding": {"s": "U0FNRQ=="}, "use_cudnn_on_gpu": {"b": true}, "leakyrelu_alpha": {"f": 0.2}, "epsilon": {"f": 0.0}, "T": {"type": "DT_FLOAT"}, "explicit_paddings": {"list": {}}, "dilations": {"list": {"i": ["1", "1", "1", "1"]}}}}, {"name": "StatefulPartitionedCall/functional_1_1/MobileNetV3Small_1/Add_2", "op": "AddV2", "input": ["StatefulPartitionedCall/functional_1_1/MobileNetV3Small_1/expanded_conv_4_squeeze_excite_conv_1_2/BiasAdd", "StatefulPartitionedCall/functional_1_1/MobileNetV3Small_1/Const_4"], "attr": {"T": {"type": "DT_FLOAT"}}}, {"name": "StatefulPartitionedCall/functional_1_1/MobileNetV3Small_1/re_lu_21_1/Relu6", "op": "Relu6", "input": ["StatefulPartitionedCall/functional_1_1/MobileNetV3Small_1/Add_2"], "attr": {"T": {"type": "DT_FLOAT"}}}, {"name": "StatefulPartitionedCall/functional_1_1/MobileNetV3Small_1/Mul_2", "op": "Mul", "input": ["StatefulPartitionedCall/functional_1_1/MobileNetV3Small_1/Const_5", "StatefulPartitionedCall/functional_1_1/MobileNetV3Small_1/re_lu_21_1/Relu6"], "attr": {"_grappler_ArithmeticOptimizer_MinimizeBroadcasts": {"b": true}, "T": {"type": "DT_FLOAT"}}}, {"name": "StatefulPartitionedCall/functional_1_1/MobileNetV3Small_1/expanded_conv_4_squeeze_excite_mul_1/Mul", "op": "Mul", "input": ["StatefulPartitionedCall/functional_1_1/MobileNetV3Small_1/Mul_2", "StatefulPartitionedCall/functional_1_1/MobileNetV3Small_1/activation_22_1/mul"], "attr": {"_grappler_ArithmeticOptimizer_MinimizeBroadcasts": {"b": true}, "T": {"type": "DT_FLOAT"}}}, {"name": "StatefulPartitionedCall/functional_1_1/MobileNetV3Small_1/expanded_conv_4_project_bn_1/batchnorm/mul_1", "op": "Conv2D", "input": ["StatefulPartitionedCall/functional_1_1/MobileNetV3Small_1/expanded_conv_4_squeeze_excite_mul_1/Mul", "StatefulPartitionedCall/functional_1_1/MobileNetV3Small_1/expanded_conv_4_project_1/convolution/merged_input"], "device": "/device:CPU:0", "attr": {"padding": {"s": "U0FNRQ=="}, "data_format": {"s": "TkhXQw=="}, "use_cudnn_on_gpu": {"b": true}, "strides": {"list": {"i": ["1", "1", "1", "1"]}}, "T": {"type": "DT_FLOAT"}, "explicit_paddings": {"list": {}}, "dilations": {"list": {"i": ["1", "1", "1", "1"]}}}}, {"name": "StatefulPartitionedCall/functional_1_1/MobileNetV3Small_1/expanded_conv_4_add_1/ArithmeticOptimizer/AddOpsRewrite_Leaf_1_Add", "op": "AddN", "input": ["StatefulPartitionedCall/functional_1_1/MobileNetV3Small_1/expanded_conv_3_project_bn_1/batchnorm/add_1", "StatefulPartitionedCall/functional_1_1/MobileNetV3Small_1/expanded_conv_4_project_bn_1/batchnorm/mul_1"], "attr": {"N": {"i": "2"}, "T": {"type": "DT_FLOAT"}, "_grappler_ArithmeticOptimizer_AddOpsRewriteStage": {"b": true}}}, {"name": "StatefulPartitionedCall/functional_1_1/MobileNetV3Small_1/expanded_conv_4_add_1/ArithmeticOptimizer/AddOpsRewrite_Add", "op": "AddV2", "input": ["StatefulPartitionedCall/functional_1_1/MobileNetV3Small_1/expanded_conv_4_project_bn_1/batchnorm/sub", "StatefulPartitionedCall/functional_1_1/MobileNetV3Small_1/expanded_conv_4_add_1/ArithmeticOptimizer/AddOpsRewrite_Leaf_1_Add"], "attr": {"T": {"type": "DT_FLOAT"}, "_grappler_ArithmeticOptimizer_AddOpsRewriteStage": {"b": true}}}, {"name": "StatefulPartitionedCall/functional_1_1/MobileNetV3Small_1/expanded_conv_5_expand_bn_1/batchnorm/add_1", "op": "_FusedConv2D", "input": ["StatefulPartitionedCall/functional_1_1/MobileNetV3Small_1/expanded_conv_4_add_1/ArithmeticOptimizer/AddOpsRewrite_Add", "StatefulPartitionedCall/functional_1_1/MobileNetV3Small_1/expanded_conv_5_expand_1/convolution/merged_input", "StatefulPartitionedCall/functional_1_1/MobileNetV3Small_1/expanded_conv_5_expand_bn_1/batchnorm/sub"], "device": "/device:CPU:0", "attr": {"num_host_args": {"i": "0"}, "data_format": {"s": "TkhXQw=="}, "filter_format": {"s": "SFdJTw=="}, "strides": {"list": {"i": ["1", "1", "1", "1"]}}, "num_args": {"i": "1"}, "fused_ops": {"list": {"s": ["Qmlhc0FkZA=="]}}, "TArgs": {"list": {"type": ["DT_FLOAT"]}}, "padding": {"s": "U0FNRQ=="}, "use_cudnn_on_gpu": {"b": true}, "leakyrelu_alpha": {"f": 0.2}, "epsilon": {"f": 0.0}, "T": {"type": "DT_FLOAT"}, "explicit_paddings": {"list": {}}, "dilations": {"list": {"i": ["1", "1", "1", "1"]}}}}, {"name": "StatefulPartitionedCall/functional_1_1/MobileNetV3Small_1/activation_23_1/truediv", "op": "Mul", "input": ["ConstantFolding/StatefulPartitionedCall/functional_1_1/MobileNetV3Small_1/activation_23_1/truediv_recip", "StatefulPartitionedCall/functional_1_1/MobileNetV3Small_1/expanded_conv_5_expand_bn_1/batchnorm/add_1"], "attr": {"_grappler_ArithmeticOptimizer_MinimizeBroadcasts": {"b": true}, "T": {"type": "DT_FLOAT"}}}, {"name": "StatefulPartitionedCall/functional_1_1/MobileNetV3Small_1/activation_23_1/add", "op": "AddV2", "input": ["StatefulPartitionedCall/functional_1_1/MobileNetV3Small_1/expanded_conv_5_expand_bn_1/batchnorm/add_1", "StatefulPartitionedCall/functional_1_1/MobileNetV3Small_1/activation_23_1/Const"], "attr": {"T": {"type": "DT_FLOAT"}}}, {"name": "StatefulPartitionedCall/functional_1_1/MobileNetV3Small_1/activation_23_1/Relu6", "op": "Relu6", "input": ["StatefulPartitionedCall/functional_1_1/MobileNetV3Small_1/activation_23_1/add"], "attr": {"T": {"type": "DT_FLOAT"}}}, {"name": "StatefulPartitionedCall/functional_1_1/MobileNetV3Small_1/activation_23_1/mul", "op": "Mul", "input": ["StatefulPartitionedCall/functional_1_1/MobileNetV3Small_1/activation_23_1/truediv", "StatefulPartitionedCall/functional_1_1/MobileNetV3Small_1/activation_23_1/Relu6"], "attr": {"_grappler_ArithmeticOptimizer_MinimizeBroadcasts": {"b": true}, "T": {"type": "DT_FLOAT"}}}, {"name": "StatefulPartitionedCall/functional_1_1/MobileNetV3Small_1/expanded_conv_5_depthwise_1/depthwise", "op": "DepthwiseConv2dNative", "input": ["StatefulPartitionedCall/functional_1_1/MobileNetV3Small_1/activation_23_1/mul", "StatefulPartitionedCall/functional_1_1/MobileNetV3Small_1/expanded_conv_5_depthwise_1/depthwise/ReadVariableOp"], "attr": {"padding": {"s": "U0FNRQ=="}, "data_format": {"s": "TkhXQw=="}, "T": {"type": "DT_FLOAT"}, "explicit_paddings": {"list": {}}, "dilations": {"list": {"i": ["1", "1", "1", "1"]}}, "strides": {"list": {"i": ["1", "1", "1", "1"]}}}}, {"name": "StatefulPartitionedCall/functional_1_1/MobileNetV3Small_1/expanded_conv_5_depthwise_bn_1/batchnorm/mul_1", "op": "Mul", "input": ["StatefulPartitionedCall/functional_1_1/MobileNetV3Small_1/expanded_conv_5_depthwise_1/depthwise", "StatefulPartitionedCall/functional_1_1/MobileNetV3Small_1/expanded_conv_5_depthwise_bn_1/batchnorm/mul"], "attr": {"T": {"type": "DT_FLOAT"}}}, {"name": "StatefulPartitionedCall/functional_1_1/MobileNetV3Small_1/expanded_conv_5_depthwise_bn_1/batchnorm/add_1", "op": "AddV2", "input": ["StatefulPartitionedCall/functional_1_1/MobileNetV3Small_1/expanded_conv_5_depthwise_bn_1/batchnorm/mul_1", "StatefulPartitionedCall/functional_1_1/MobileNetV3Small_1/expanded_conv_5_depthwise_bn_1/batchnorm/sub"], "attr": {"T": {"type": "DT_FLOAT"}}}, {"name": "StatefulPartitionedCall/functional_1_1/MobileNetV3Small_1/activation_24_1/truediv", "op": "Mul", "input": ["ConstantFolding/StatefulPartitionedCall/functional_1_1/MobileNetV3Small_1/activation_24_1/truediv_recip", "StatefulPartitionedCall/functional_1_1/MobileNetV3Small_1/expanded_conv_5_depthwise_bn_1/batchnorm/add_1"], "attr": {"_grappler_ArithmeticOptimizer_MinimizeBroadcasts": {"b": true}, "T": {"type": "DT_FLOAT"}}}, {"name": "StatefulPartitionedCall/functional_1_1/MobileNetV3Small_1/activation_24_1/add", "op": "AddV2", "input": ["StatefulPartitionedCall/functional_1_1/MobileNetV3Small_1/expanded_conv_5_depthwise_bn_1/batchnorm/add_1", "StatefulPartitionedCall/functional_1_1/MobileNetV3Small_1/activation_24_1/Const"], "attr": {"T": {"type": "DT_FLOAT"}}}, {"name": "StatefulPartitionedCall/functional_1_1/MobileNetV3Small_1/activation_24_1/Relu6", "op": "Relu6", "input": ["StatefulPartitionedCall/functional_1_1/MobileNetV3Small_1/activation_24_1/add"], "attr": {"T": {"type": "DT_FLOAT"}}}, {"name": "StatefulPartitionedCall/functional_1_1/MobileNetV3Small_1/activation_24_1/mul", "op": "Mul", "input": ["StatefulPartitionedCall/functional_1_1/MobileNetV3Small_1/activation_24_1/truediv", "StatefulPartitionedCall/functional_1_1/MobileNetV3Small_1/activation_24_1/Relu6"], "attr": {"_grappler_ArithmeticOptimizer_MinimizeBroadcasts": {"b": true}, "T": {"type": "DT_FLOAT"}}}, {"name": "StatefulPartitionedCall/functional_1_1/MobileNetV3Small_1/expanded_conv_5_squeeze_excite_avg_pool_1/Mean", "op": "Mean", "input": ["StatefulPartitionedCall/functional_1_1/MobileNetV3Small_1/activation_24_1/mul", "StatefulPartitionedCall/functional_1_1/MobileNetV3Small_1/expanded_conv_5_squeeze_excite_avg_pool_1/Mean/reduction_indices"], "attr": {"Tidx": {"type": "DT_INT32"}, "T": {"type": "DT_FLOAT"}, "keep_dims": {"b": true}}}, {"name": "StatefulPartitionedCall/functional_1_1/MobileNetV3Small_1/expanded_conv_5_squeeze_excite_relu_1/Relu", "op": "_FusedConv2D", "input": ["StatefulPartitionedCall/functional_1_1/MobileNetV3Small_1/expanded_conv_5_squeeze_excite_avg_pool_1/Mean", "StatefulPartitionedCall/functional_1_1/MobileNetV3Small_1/expanded_conv_5_squeeze_excite_conv_1/convolution/ReadVariableOp", "StatefulPartitionedCall/functional_1_1/MobileNetV3Small_1/expanded_conv_5_squeeze_excite_conv_1/Squeeze"], "device": "/device:CPU:0", "attr": {"num_host_args": {"i": "0"}, "data_format": {"s": "TkhXQw=="}, "filter_format": {"s": "SFdJTw=="}, "fused_ops": {"list": {"s": ["Qmlhc0FkZA==", "UmVsdQ=="]}}, "num_args": {"i": "1"}, "strides": {"list": {"i": ["1", "1", "1", "1"]}}, "TArgs": {"list": {"type": ["DT_FLOAT"]}}, "padding": {"s": "U0FNRQ=="}, "use_cudnn_on_gpu": {"b": true}, "leakyrelu_alpha": {"f": 0.2}, "epsilon": {"f": 0.0}, "T": {"type": "DT_FLOAT"}, "explicit_paddings": {"list": {}}, "dilations": {"list": {"i": ["1", "1", "1", "1"]}}}}, {"name": "StatefulPartitionedCall/functional_1_1/MobileNetV3Small_1/expanded_conv_5_squeeze_excite_conv_1_2/BiasAdd", "op": "_FusedConv2D", "input": ["StatefulPartitionedCall/functional_1_1/MobileNetV3Small_1/expanded_conv_5_squeeze_excite_relu_1/Relu", "StatefulPartitionedCall/functional_1_1/MobileNetV3Small_1/expanded_conv_5_squeeze_excite_conv_1_2/convolution/ReadVariableOp", "StatefulPartitionedCall/functional_1_1/MobileNetV3Small_1/expanded_conv_5_squeeze_excite_conv_1_2/Squeeze"], "device": "/device:CPU:0", "attr": {"num_host_args": {"i": "0"}, "data_format": {"s": "TkhXQw=="}, "filter_format": {"s": "SFdJTw=="}, "fused_ops": {"list": {"s": ["Qmlhc0FkZA=="]}}, "num_args": {"i": "1"}, "strides": {"list": {"i": ["1", "1", "1", "1"]}}, "TArgs": {"list": {"type": ["DT_FLOAT"]}}, "padding": {"s": "U0FNRQ=="}, "use_cudnn_on_gpu": {"b": true}, "leakyrelu_alpha": {"f": 0.2}, "epsilon": {"f": 0.0}, "T": {"type": "DT_FLOAT"}, "explicit_paddings": {"list": {}}, "dilations": {"list": {"i": ["1", "1", "1", "1"]}}}}, {"name": "StatefulPartitionedCall/functional_1_1/MobileNetV3Small_1/Add_3", "op": "AddV2", "input": ["StatefulPartitionedCall/functional_1_1/MobileNetV3Small_1/expanded_conv_5_squeeze_excite_conv_1_2/BiasAdd", "StatefulPartitionedCall/functional_1_1/MobileNetV3Small_1/Const_6"], "attr": {"T": {"type": "DT_FLOAT"}}}, {"name": "StatefulPartitionedCall/functional_1_1/MobileNetV3Small_1/re_lu_22_1/Relu6", "op": "Relu6", "input": ["StatefulPartitionedCall/functional_1_1/MobileNetV3Small_1/Add_3"], "attr": {"T": {"type": "DT_FLOAT"}}}, {"name": "StatefulPartitionedCall/functional_1_1/MobileNetV3Small_1/Mul_3", "op": "Mul", "input": ["StatefulPartitionedCall/functional_1_1/MobileNetV3Small_1/Const_7", "StatefulPartitionedCall/functional_1_1/MobileNetV3Small_1/re_lu_22_1/Relu6"], "attr": {"_grappler_ArithmeticOptimizer_MinimizeBroadcasts": {"b": true}, "T": {"type": "DT_FLOAT"}}}, {"name": "StatefulPartitionedCall/functional_1_1/MobileNetV3Small_1/expanded_conv_5_squeeze_excite_mul_1/Mul", "op": "Mul", "input": ["StatefulPartitionedCall/functional_1_1/MobileNetV3Small_1/Mul_3", "StatefulPartitionedCall/functional_1_1/MobileNetV3Small_1/activation_24_1/mul"], "attr": {"_grappler_ArithmeticOptimizer_MinimizeBroadcasts": {"b": true}, "T": {"type": "DT_FLOAT"}}}, {"name": "StatefulPartitionedCall/functional_1_1/MobileNetV3Small_1/expanded_conv_5_project_bn_1/batchnorm/mul_1", "op": "Conv2D", "input": ["StatefulPartitionedCall/functional_1_1/MobileNetV3Small_1/expanded_conv_5_squeeze_excite_mul_1/Mul", "StatefulPartitionedCall/functional_1_1/MobileNetV3Small_1/expanded_conv_5_project_1/convolution/merged_input"], "device": "/device:CPU:0", "attr": {"padding": {"s": "U0FNRQ=="}, "data_format": {"s": "TkhXQw=="}, "use_cudnn_on_gpu": {"b": true}, "strides": {"list": {"i": ["1", "1", "1", "1"]}}, "T": {"type": "DT_FLOAT"}, "explicit_paddings": {"list": {}}, "dilations": {"list": {"i": ["1", "1", "1", "1"]}}}}, {"name": "StatefulPartitionedCall/functional_1_1/MobileNetV3Small_1/expanded_conv_5_add_1/ArithmeticOptimizer/AddOpsRewrite_Leaf_1_Add", "op": "AddN", "input": ["StatefulPartitionedCall/functional_1_1/MobileNetV3Small_1/expanded_conv_4_add_1/ArithmeticOptimizer/AddOpsRewrite_Add", "StatefulPartitionedCall/functional_1_1/MobileNetV3Small_1/expanded_conv_5_project_bn_1/batchnorm/mul_1"], "attr": {"N": {"i": "2"}, "T": {"type": "DT_FLOAT"}, "_grappler_ArithmeticOptimizer_AddOpsRewriteStage": {"b": true}}}, {"name": "StatefulPartitionedCall/functional_1_1/MobileNetV3Small_1/expanded_conv_5_add_1/ArithmeticOptimizer/AddOpsRewrite_Add", "op": "AddV2", "input": ["StatefulPartitionedCall/functional_1_1/MobileNetV3Small_1/expanded_conv_5_project_bn_1/batchnorm/sub", "StatefulPartitionedCall/functional_1_1/MobileNetV3Small_1/expanded_conv_5_add_1/ArithmeticOptimizer/AddOpsRewrite_Leaf_1_Add"], "attr": {"T": {"type": "DT_FLOAT"}, "_grappler_ArithmeticOptimizer_AddOpsRewriteStage": {"b": true}}}, {"name": "StatefulPartitionedCall/functional_1_1/MobileNetV3Small_1/expanded_conv_6_expand_bn_1/batchnorm/add_1", "op": "_FusedConv2D", "input": ["StatefulPartitionedCall/functional_1_1/MobileNetV3Small_1/expanded_conv_5_add_1/ArithmeticOptimizer/AddOpsRewrite_Add", "StatefulPartitionedCall/functional_1_1/MobileNetV3Small_1/expanded_conv_6_expand_1/convolution/merged_input", "StatefulPartitionedCall/functional_1_1/MobileNetV3Small_1/expanded_conv_6_expand_bn_1/batchnorm/sub"], "device": "/device:CPU:0", "attr": {"num_host_args": {"i": "0"}, "data_format": {"s": "TkhXQw=="}, "filter_format": {"s": "SFdJTw=="}, "strides": {"list": {"i": ["1", "1", "1", "1"]}}, "num_args": {"i": "1"}, "fused_ops": {"list": {"s": ["Qmlhc0FkZA=="]}}, "TArgs": {"list": {"type": ["DT_FLOAT"]}}, "padding": {"s": "U0FNRQ=="}, "use_cudnn_on_gpu": {"b": true}, "leakyrelu_alpha": {"f": 0.2}, "epsilon": {"f": 0.0}, "T": {"type": "DT_FLOAT"}, "explicit_paddings": {"list": {}}, "dilations": {"list": {"i": ["1", "1", "1", "1"]}}}}, {"name": "StatefulPartitionedCall/functional_1_1/MobileNetV3Small_1/activation_25_1/truediv", "op": "Mul", "input": ["ConstantFolding/StatefulPartitionedCall/functional_1_1/MobileNetV3Small_1/activation_25_1/truediv_recip", "StatefulPartitionedCall/functional_1_1/MobileNetV3Small_1/expanded_conv_6_expand_bn_1/batchnorm/add_1"], "attr": {"_grappler_ArithmeticOptimizer_MinimizeBroadcasts": {"b": true}, "T": {"type": "DT_FLOAT"}}}, {"name": "StatefulPartitionedCall/functional_1_1/MobileNetV3Small_1/activation_25_1/add", "op": "AddV2", "input": ["StatefulPartitionedCall/functional_1_1/MobileNetV3Small_1/expanded_conv_6_expand_bn_1/batchnorm/add_1", "StatefulPartitionedCall/functional_1_1/MobileNetV3Small_1/activation_25_1/Const"], "attr": {"T": {"type": "DT_FLOAT"}}}, {"name": "StatefulPartitionedCall/functional_1_1/MobileNetV3Small_1/activation_25_1/Relu6", "op": "Relu6", "input": ["StatefulPartitionedCall/functional_1_1/MobileNetV3Small_1/activation_25_1/add"], "attr": {"T": {"type": "DT_FLOAT"}}}, {"name": "StatefulPartitionedCall/functional_1_1/MobileNetV3Small_1/activation_25_1/mul", "op": "Mul", "input": ["StatefulPartitionedCall/functional_1_1/MobileNetV3Small_1/activation_25_1/truediv", "StatefulPartitionedCall/functional_1_1/MobileNetV3Small_1/activation_25_1/Relu6"], "attr": {"_grappler_ArithmeticOptimizer_MinimizeBroadcasts": {"b": true}, "T": {"type": "DT_FLOAT"}}}, {"name": "StatefulPartitionedCall/functional_1_1/MobileNetV3Small_1/expanded_conv_6_depthwise_1/depthwise", "op": "DepthwiseConv2dNative", "input": ["StatefulPartitionedCall/functional_1_1/MobileNetV3Small_1/activation_25_1/mul", "StatefulPartitionedCall/functional_1_1/MobileNetV3Small_1/expanded_conv_6_depthwise_1/depthwise/ReadVariableOp"], "attr": {"padding": {"s": "U0FNRQ=="}, "data_format": {"s": "TkhXQw=="}, "T": {"type": "DT_FLOAT"}, "explicit_paddings": {"list": {}}, "dilations": {"list": {"i": ["1", "1", "1", "1"]}}, "strides": {"list": {"i": ["1", "1", "1", "1"]}}}}, {"name": "StatefulPartitionedCall/functional_1_1/MobileNetV3Small_1/expanded_conv_6_depthwise_bn_1/batchnorm/mul_1", "op": "Mul", "input": ["StatefulPartitionedCall/functional_1_1/MobileNetV3Small_1/expanded_conv_6_depthwise_1/depthwise", "StatefulPartitionedCall/functional_1_1/MobileNetV3Small_1/expanded_conv_6_depthwise_bn_1/batchnorm/mul"], "attr": {"T": {"type": "DT_FLOAT"}}}, {"name": "StatefulPartitionedCall/functional_1_1/MobileNetV3Small_1/expanded_conv_6_depthwise_bn_1/batchnorm/add_1", "op": "AddV2", "input": ["StatefulPartitionedCall/functional_1_1/MobileNetV3Small_1/expanded_conv_6_depthwise_bn_1/batchnorm/mul_1", "StatefulPartitionedCall/functional_1_1/MobileNetV3Small_1/expanded_conv_6_depthwise_bn_1/batchnorm/sub"], "attr": {"T": {"type": "DT_FLOAT"}}}, {"name": "StatefulPartitionedCall/functional_1_1/MobileNetV3Small_1/activation_26_1/truediv", "op": "Mul", "input": ["ConstantFolding/StatefulPartitionedCall/functional_1_1/MobileNetV3Small_1/activation_26_1/truediv_recip", "StatefulPartitionedCall/functional_1_1/MobileNetV3Small_1/expanded_conv_6_depthwise_bn_1/batchnorm/add_1"], "attr": {"_grappler_ArithmeticOptimizer_MinimizeBroadcasts": {"b": true}, "T": {"type": "DT_FLOAT"}}}, {"name": "StatefulPartitionedCall/functional_1_1/MobileNetV3Small_1/activation_26_1/add", "op": "AddV2", "input": ["StatefulPartitionedCall/functional_1_1/MobileNetV3Small_1/expanded_conv_6_depthwise_bn_1/batchnorm/add_1", "StatefulPartitionedCall/functional_1_1/MobileNetV3Small_1/activation_26_1/Const"], "attr": {"T": {"type": "DT_FLOAT"}}}, {"name": "StatefulPartitionedCall/functional_1_1/MobileNetV3Small_1/activation_26_1/Relu6", "op": "Relu6", "input": ["StatefulPartitionedCall/functional_1_1/MobileNetV3Small_1/activation_26_1/add"], "attr": {"T": {"type": "DT_FLOAT"}}}, {"name": "StatefulPartitionedCall/functional_1_1/MobileNetV3Small_1/activation_26_1/mul", "op": "Mul", "input": ["StatefulPartitionedCall/functional_1_1/MobileNetV3Small_1/activation_26_1/truediv", "StatefulPartitionedCall/functional_1_1/MobileNetV3Small_1/activation_26_1/Relu6"], "attr": {"_grappler_ArithmeticOptimizer_MinimizeBroadcasts": {"b": true}, "T": {"type": "DT_FLOAT"}}}, {"name": "StatefulPartitionedCall/functional_1_1/MobileNetV3Small_1/expanded_conv_6_squeeze_excite_avg_pool_1/Mean", "op": "Mean", "input": ["StatefulPartitionedCall/functional_1_1/MobileNetV3Small_1/activation_26_1/mul", "StatefulPartitionedCall/functional_1_1/MobileNetV3Small_1/expanded_conv_6_squeeze_excite_avg_pool_1/Mean/reduction_indices"], "attr": {"Tidx": {"type": "DT_INT32"}, "T": {"type": "DT_FLOAT"}, "keep_dims": {"b": true}}}, {"name": "StatefulPartitionedCall/functional_1_1/MobileNetV3Small_1/expanded_conv_6_squeeze_excite_relu_1/Relu", "op": "_FusedConv2D", "input": ["StatefulPartitionedCall/functional_1_1/MobileNetV3Small_1/expanded_conv_6_squeeze_excite_avg_pool_1/Mean", "StatefulPartitionedCall/functional_1_1/MobileNetV3Small_1/expanded_conv_6_squeeze_excite_conv_1/convolution/ReadVariableOp", "StatefulPartitionedCall/functional_1_1/MobileNetV3Small_1/expanded_conv_6_squeeze_excite_conv_1/Squeeze"], "device": "/device:CPU:0", "attr": {"num_host_args": {"i": "0"}, "data_format": {"s": "TkhXQw=="}, "filter_format": {"s": "SFdJTw=="}, "fused_ops": {"list": {"s": ["Qmlhc0FkZA==", "UmVsdQ=="]}}, "num_args": {"i": "1"}, "strides": {"list": {"i": ["1", "1", "1", "1"]}}, "TArgs": {"list": {"type": ["DT_FLOAT"]}}, "padding": {"s": "U0FNRQ=="}, "use_cudnn_on_gpu": {"b": true}, "leakyrelu_alpha": {"f": 0.2}, "epsilon": {"f": 0.0}, "T": {"type": "DT_FLOAT"}, "explicit_paddings": {"list": {}}, "dilations": {"list": {"i": ["1", "1", "1", "1"]}}}}, {"name": "StatefulPartitionedCall/functional_1_1/MobileNetV3Small_1/expanded_conv_6_squeeze_excite_conv_1_2/BiasAdd", "op": "_FusedConv2D", "input": ["StatefulPartitionedCall/functional_1_1/MobileNetV3Small_1/expanded_conv_6_squeeze_excite_relu_1/Relu", "StatefulPartitionedCall/functional_1_1/MobileNetV3Small_1/expanded_conv_6_squeeze_excite_conv_1_2/convolution/ReadVariableOp", "StatefulPartitionedCall/functional_1_1/MobileNetV3Small_1/expanded_conv_6_squeeze_excite_conv_1_2/Squeeze"], "device": "/device:CPU:0", "attr": {"num_host_args": {"i": "0"}, "data_format": {"s": "TkhXQw=="}, "filter_format": {"s": "SFdJTw=="}, "fused_ops": {"list": {"s": ["Qmlhc0FkZA=="]}}, "num_args": {"i": "1"}, "strides": {"list": {"i": ["1", "1", "1", "1"]}}, "TArgs": {"list": {"type": ["DT_FLOAT"]}}, "padding": {"s": "U0FNRQ=="}, "use_cudnn_on_gpu": {"b": true}, "leakyrelu_alpha": {"f": 0.2}, "epsilon": {"f": 0.0}, "T": {"type": "DT_FLOAT"}, "explicit_paddings": {"list": {}}, "dilations": {"list": {"i": ["1", "1", "1", "1"]}}}}, {"name": "StatefulPartitionedCall/functional_1_1/MobileNetV3Small_1/Add_4", "op": "AddV2", "input": ["StatefulPartitionedCall/functional_1_1/MobileNetV3Small_1/expanded_conv_6_squeeze_excite_conv_1_2/BiasAdd", "StatefulPartitionedCall/functional_1_1/MobileNetV3Small_1/Const_8"], "attr": {"T": {"type": "DT_FLOAT"}}}, {"name": "StatefulPartitionedCall/functional_1_1/MobileNetV3Small_1/re_lu_23_1/Relu6", "op": "Relu6", "input": ["StatefulPartitionedCall/functional_1_1/MobileNetV3Small_1/Add_4"], "attr": {"T": {"type": "DT_FLOAT"}}}, {"name": "StatefulPartitionedCall/functional_1_1/MobileNetV3Small_1/Mul_4", "op": "Mul", "input": ["StatefulPartitionedCall/functional_1_1/MobileNetV3Small_1/Const_9", "StatefulPartitionedCall/functional_1_1/MobileNetV3Small_1/re_lu_23_1/Relu6"], "attr": {"_grappler_ArithmeticOptimizer_MinimizeBroadcasts": {"b": true}, "T": {"type": "DT_FLOAT"}}}, {"name": "StatefulPartitionedCall/functional_1_1/MobileNetV3Small_1/expanded_conv_6_squeeze_excite_mul_1/Mul", "op": "Mul", "input": ["StatefulPartitionedCall/functional_1_1/MobileNetV3Small_1/Mul_4", "StatefulPartitionedCall/functional_1_1/MobileNetV3Small_1/activation_26_1/mul"], "attr": {"_grappler_ArithmeticOptimizer_MinimizeBroadcasts": {"b": true}, "T": {"type": "DT_FLOAT"}}}, {"name": "StatefulPartitionedCall/functional_1_1/MobileNetV3Small_1/expanded_conv_6_project_bn_1/batchnorm/add_1", "op": "_FusedConv2D", "input": ["StatefulPartitionedCall/functional_1_1/MobileNetV3Small_1/expanded_conv_6_squeeze_excite_mul_1/Mul", "StatefulPartitionedCall/functional_1_1/MobileNetV3Small_1/expanded_conv_6_project_1/convolution/merged_input", "StatefulPartitionedCall/functional_1_1/MobileNetV3Small_1/expanded_conv_6_project_bn_1/batchnorm/sub"], "device": "/device:CPU:0", "attr": {"num_host_args": {"i": "0"}, "data_format": {"s": "TkhXQw=="}, "filter_format": {"s": "SFdJTw=="}, "fused_ops": {"list": {"s": ["Qmlhc0FkZA=="]}}, "num_args": {"i": "1"}, "strides": {"list": {"i": ["1", "1", "1", "1"]}}, "TArgs": {"list": {"type": ["DT_FLOAT"]}}, "padding": {"s": "U0FNRQ=="}, "use_cudnn_on_gpu": {"b": true}, "leakyrelu_alpha": {"f": 0.2}, "epsilon": {"f": 0.0}, "T": {"type": "DT_FLOAT"}, "explicit_paddings": {"list": {}}, "dilations": {"list": {"i": ["1", "1", "1", "1"]}}}}, {"name": "StatefulPartitionedCall/functional_1_1/MobileNetV3Small_1/expanded_conv_7_expand_bn_1/batchnorm/add_1", "op": "_FusedConv2D", "input": ["StatefulPartitionedCall/functional_1_1/MobileNetV3Small_1/expanded_conv_6_project_bn_1/batchnorm/add_1", "StatefulPartitionedCall/functional_1_1/MobileNetV3Small_1/expanded_conv_7_expand_1/convolution/merged_input", "StatefulPartitionedCall/functional_1_1/MobileNetV3Small_1/expanded_conv_7_expand_bn_1/batchnorm/sub"], "device": "/device:CPU:0", "attr": {"num_host_args": {"i": "0"}, "data_format": {"s": "TkhXQw=="}, "filter_format": {"s": "SFdJTw=="}, "strides": {"list": {"i": ["1", "1", "1", "1"]}}, "num_args": {"i": "1"}, "fused_ops": {"list": {"s": ["Qmlhc0FkZA=="]}}, "TArgs": {"list": {"type": ["DT_FLOAT"]}}, "padding": {"s": "U0FNRQ=="}, "use_cudnn_on_gpu": {"b": true}, "leakyrelu_alpha": {"f": 0.2}, "epsilon": {"f": 0.0}, "T": {"type": "DT_FLOAT"}, "explicit_paddings": {"list": {}}, "dilations": {"list": {"i": ["1", "1", "1", "1"]}}}}, {"name": "StatefulPartitionedCall/functional_1_1/MobileNetV3Small_1/activation_27_1/truediv", "op": "Mul", "input": ["ConstantFolding/StatefulPartitionedCall/functional_1_1/MobileNetV3Small_1/activation_27_1/truediv_recip", "StatefulPartitionedCall/functional_1_1/MobileNetV3Small_1/expanded_conv_7_expand_bn_1/batchnorm/add_1"], "attr": {"_grappler_ArithmeticOptimizer_MinimizeBroadcasts": {"b": true}, "T": {"type": "DT_FLOAT"}}}, {"name": "StatefulPartitionedCall/functional_1_1/MobileNetV3Small_1/activation_27_1/add", "op": "AddV2", "input": ["StatefulPartitionedCall/functional_1_1/MobileNetV3Small_1/expanded_conv_7_expand_bn_1/batchnorm/add_1", "StatefulPartitionedCall/functional_1_1/MobileNetV3Small_1/activation_27_1/Const"], "attr": {"T": {"type": "DT_FLOAT"}}}, {"name": "StatefulPartitionedCall/functional_1_1/MobileNetV3Small_1/activation_27_1/Relu6", "op": "Relu6", "input": ["StatefulPartitionedCall/functional_1_1/MobileNetV3Small_1/activation_27_1/add"], "attr": {"T": {"type": "DT_FLOAT"}}}, {"name": "StatefulPartitionedCall/functional_1_1/MobileNetV3Small_1/activation_27_1/mul", "op": "Mul", "input": ["StatefulPartitionedCall/functional_1_1/MobileNetV3Small_1/activation_27_1/truediv", "StatefulPartitionedCall/functional_1_1/MobileNetV3Small_1/activation_27_1/Relu6"], "attr": {"_grappler_ArithmeticOptimizer_MinimizeBroadcasts": {"b": true}, "T": {"type": "DT_FLOAT"}}}, {"name": "StatefulPartitionedCall/functional_1_1/MobileNetV3Small_1/expanded_conv_7_depthwise_1/depthwise", "op": "DepthwiseConv2dNative", "input": ["StatefulPartitionedCall/functional_1_1/MobileNetV3Small_1/activation_27_1/mul", "StatefulPartitionedCall/functional_1_1/MobileNetV3Small_1/expanded_conv_7_depthwise_1/depthwise/ReadVariableOp"], "attr": {"padding": {"s": "U0FNRQ=="}, "data_format": {"s": "TkhXQw=="}, "T": {"type": "DT_FLOAT"}, "explicit_paddings": {"list": {}}, "dilations": {"list": {"i": ["1", "1", "1", "1"]}}, "strides": {"list": {"i": ["1", "1", "1", "1"]}}}}, {"name": "StatefulPartitionedCall/functional_1_1/MobileNetV3Small_1/expanded_conv_7_depthwise_bn_1/batchnorm/mul_1", "op": "Mul", "input": ["StatefulPartitionedCall/functional_1_1/MobileNetV3Small_1/expanded_conv_7_depthwise_1/depthwise", "StatefulPartitionedCall/functional_1_1/MobileNetV3Small_1/expanded_conv_7_depthwise_bn_1/batchnorm/mul"], "attr": {"T": {"type": "DT_FLOAT"}}}, {"name": "StatefulPartitionedCall/functional_1_1/MobileNetV3Small_1/expanded_conv_7_depthwise_bn_1/batchnorm/add_1", "op": "AddV2", "input": ["StatefulPartitionedCall/functional_1_1/MobileNetV3Small_1/expanded_conv_7_depthwise_bn_1/batchnorm/mul_1", "StatefulPartitionedCall/functional_1_1/MobileNetV3Small_1/expanded_conv_7_depthwise_bn_1/batchnorm/sub"], "attr": {"T": {"type": "DT_FLOAT"}}}, {"name": "StatefulPartitionedCall/functional_1_1/MobileNetV3Small_1/activation_28_1/truediv", "op": "Mul", "input": ["ConstantFolding/StatefulPartitionedCall/functional_1_1/MobileNetV3Small_1/activation_28_1/truediv_recip", "StatefulPartitionedCall/functional_1_1/MobileNetV3Small_1/expanded_conv_7_depthwise_bn_1/batchnorm/add_1"], "attr": {"_grappler_ArithmeticOptimizer_MinimizeBroadcasts": {"b": true}, "T": {"type": "DT_FLOAT"}}}, {"name": "StatefulPartitionedCall/functional_1_1/MobileNetV3Small_1/activation_28_1/add", "op": "AddV2", "input": ["StatefulPartitionedCall/functional_1_1/MobileNetV3Small_1/expanded_conv_7_depthwise_bn_1/batchnorm/add_1", "StatefulPartitionedCall/functional_1_1/MobileNetV3Small_1/activation_28_1/Const"], "attr": {"T": {"type": "DT_FLOAT"}}}, {"name": "StatefulPartitionedCall/functional_1_1/MobileNetV3Small_1/activation_28_1/Relu6", "op": "Relu6", "input": ["StatefulPartitionedCall/functional_1_1/MobileNetV3Small_1/activation_28_1/add"], "attr": {"T": {"type": "DT_FLOAT"}}}, {"name": "StatefulPartitionedCall/functional_1_1/MobileNetV3Small_1/activation_28_1/mul", "op": "Mul", "input": ["StatefulPartitionedCall/functional_1_1/MobileNetV3Small_1/activation_28_1/truediv", "StatefulPartitionedCall/functional_1_1/MobileNetV3Small_1/activation_28_1/Relu6"], "attr": {"_grappler_ArithmeticOptimizer_MinimizeBroadcasts": {"b": true}, "T": {"type": "DT_FLOAT"}}}, {"name": "StatefulPartitionedCall/functional_1_1/MobileNetV3Small_1/expanded_conv_7_squeeze_excite_avg_pool_1/Mean", "op": "Mean", "input": ["StatefulPartitionedCall/functional_1_1/MobileNetV3Small_1/activation_28_1/mul", "StatefulPartitionedCall/functional_1_1/MobileNetV3Small_1/expanded_conv_7_squeeze_excite_avg_pool_1/Mean/reduction_indices"], "attr": {"Tidx": {"type": "DT_INT32"}, "T": {"type": "DT_FLOAT"}, "keep_dims": {"b": true}}}, {"name": "StatefulPartitionedCall/functional_1_1/MobileNetV3Small_1/expanded_conv_7_squeeze_excite_relu_1/Relu", "op": "_FusedConv2D", "input": ["StatefulPartitionedCall/functional_1_1/MobileNetV3Small_1/expanded_conv_7_squeeze_excite_avg_pool_1/Mean", "StatefulPartitionedCall/functional_1_1/MobileNetV3Small_1/expanded_conv_7_squeeze_excite_conv_1/convolution/ReadVariableOp", "StatefulPartitionedCall/functional_1_1/MobileNetV3Small_1/expanded_conv_7_squeeze_excite_conv_1/Squeeze"], "device": "/device:CPU:0", "attr": {"num_host_args": {"i": "0"}, "data_format": {"s": "TkhXQw=="}, "filter_format": {"s": "SFdJTw=="}, "fused_ops": {"list": {"s": ["Qmlhc0FkZA==", "UmVsdQ=="]}}, "num_args": {"i": "1"}, "strides": {"list": {"i": ["1", "1", "1", "1"]}}, "TArgs": {"list": {"type": ["DT_FLOAT"]}}, "padding": {"s": "U0FNRQ=="}, "use_cudnn_on_gpu": {"b": true}, "leakyrelu_alpha": {"f": 0.2}, "epsilon": {"f": 0.0}, "T": {"type": "DT_FLOAT"}, "explicit_paddings": {"list": {}}, "dilations": {"list": {"i": ["1", "1", "1", "1"]}}}}, {"name": "StatefulPartitionedCall/functional_1_1/MobileNetV3Small_1/expanded_conv_7_squeeze_excite_conv_1_2/BiasAdd", "op": "_FusedConv2D", "input": ["StatefulPartitionedCall/functional_1_1/MobileNetV3Small_1/expanded_conv_7_squeeze_excite_relu_1/Relu", "StatefulPartitionedCall/functional_1_1/MobileNetV3Small_1/expanded_conv_7_squeeze_excite_conv_1_2/convolution/ReadVariableOp", "StatefulPartitionedCall/functional_1_1/MobileNetV3Small_1/expanded_conv_7_squeeze_excite_conv_1_2/Squeeze"], "device": "/device:CPU:0", "attr": {"num_host_args": {"i": "0"}, "data_format": {"s": "TkhXQw=="}, "filter_format": {"s": "SFdJTw=="}, "strides": {"list": {"i": ["1", "1", "1", "1"]}}, "num_args": {"i": "1"}, "fused_ops": {"list": {"s": ["Qmlhc0FkZA=="]}}, "TArgs": {"list": {"type": ["DT_FLOAT"]}}, "padding": {"s": "U0FNRQ=="}, "use_cudnn_on_gpu": {"b": true}, "leakyrelu_alpha": {"f": 0.2}, "epsilon": {"f": 0.0}, "T": {"type": "DT_FLOAT"}, "explicit_paddings": {"list": {}}, "dilations": {"list": {"i": ["1", "1", "1", "1"]}}}}, {"name": "StatefulPartitionedCall/functional_1_1/MobileNetV3Small_1/Add_5", "op": "AddV2", "input": ["StatefulPartitionedCall/functional_1_1/MobileNetV3Small_1/expanded_conv_7_squeeze_excite_conv_1_2/BiasAdd", "StatefulPartitionedCall/functional_1_1/MobileNetV3Small_1/Const_10"], "attr": {"T": {"type": "DT_FLOAT"}}}, {"name": "StatefulPartitionedCall/functional_1_1/MobileNetV3Small_1/re_lu_24_1/Relu6", "op": "Relu6", "input": ["StatefulPartitionedCall/functional_1_1/MobileNetV3Small_1/Add_5"], "attr": {"T": {"type": "DT_FLOAT"}}}, {"name": "StatefulPartitionedCall/functional_1_1/MobileNetV3Small_1/Mul_5", "op": "Mul", "input": ["StatefulPartitionedCall/functional_1_1/MobileNetV3Small_1/Const_11", "StatefulPartitionedCall/functional_1_1/MobileNetV3Small_1/re_lu_24_1/Relu6"], "attr": {"_grappler_ArithmeticOptimizer_MinimizeBroadcasts": {"b": true}, "T": {"type": "DT_FLOAT"}}}, {"name": "StatefulPartitionedCall/functional_1_1/MobileNetV3Small_1/expanded_conv_7_squeeze_excite_mul_1/Mul", "op": "Mul", "input": ["StatefulPartitionedCall/functional_1_1/MobileNetV3Small_1/Mul_5", "StatefulPartitionedCall/functional_1_1/MobileNetV3Small_1/activation_28_1/mul"], "attr": {"_grappler_ArithmeticOptimizer_MinimizeBroadcasts": {"b": true}, "T": {"type": "DT_FLOAT"}}}, {"name": "StatefulPartitionedCall/functional_1_1/MobileNetV3Small_1/expanded_conv_7_project_bn_1/batchnorm/mul_1", "op": "Conv2D", "input": ["StatefulPartitionedCall/functional_1_1/MobileNetV3Small_1/expanded_conv_7_squeeze_excite_mul_1/Mul", "StatefulPartitionedCall/functional_1_1/MobileNetV3Small_1/expanded_conv_7_project_1/convolution/merged_input"], "device": "/device:CPU:0", "attr": {"padding": {"s": "U0FNRQ=="}, "data_format": {"s": "TkhXQw=="}, "strides": {"list": {"i": ["1", "1", "1", "1"]}}, "use_cudnn_on_gpu": {"b": true}, "T": {"type": "DT_FLOAT"}, "explicit_paddings": {"list": {}}, "dilations": {"list": {"i": ["1", "1", "1", "1"]}}}}, {"name": "StatefulPartitionedCall/functional_1_1/MobileNetV3Small_1/expanded_conv_7_add_1/ArithmeticOptimizer/AddOpsRewrite_Leaf_1_Add", "op": "AddN", "input": ["StatefulPartitionedCall/functional_1_1/MobileNetV3Small_1/expanded_conv_6_project_bn_1/batchnorm/add_1", "StatefulPartitionedCall/functional_1_1/MobileNetV3Small_1/expanded_conv_7_project_bn_1/batchnorm/mul_1"], "attr": {"N": {"i": "2"}, "T": {"type": "DT_FLOAT"}, "_grappler_ArithmeticOptimizer_AddOpsRewriteStage": {"b": true}}}, {"name": "StatefulPartitionedCall/functional_1_1/MobileNetV3Small_1/expanded_conv_7_add_1/ArithmeticOptimizer/AddOpsRewrite_Add", "op": "AddV2", "input": ["StatefulPartitionedCall/functional_1_1/MobileNetV3Small_1/expanded_conv_7_project_bn_1/batchnorm/sub", "StatefulPartitionedCall/functional_1_1/MobileNetV3Small_1/expanded_conv_7_add_1/ArithmeticOptimizer/AddOpsRewrite_Leaf_1_Add"], "attr": {"T": {"type": "DT_FLOAT"}, "_grappler_ArithmeticOptimizer_AddOpsRewriteStage": {"b": true}}}, {"name": "StatefulPartitionedCall/functional_1_1/MobileNetV3Small_1/expanded_conv_8_expand_bn_1/batchnorm/add_1", "op": "_FusedConv2D", "input": ["StatefulPartitionedCall/functional_1_1/MobileNetV3Small_1/expanded_conv_7_add_1/ArithmeticOptimizer/AddOpsRewrite_Add", "StatefulPartitionedCall/functional_1_1/MobileNetV3Small_1/expanded_conv_8_expand_1/convolution/merged_input", "StatefulPartitionedCall/functional_1_1/MobileNetV3Small_1/expanded_conv_8_expand_bn_1/batchnorm/sub"], "device": "/device:CPU:0", "attr": {"num_host_args": {"i": "0"}, "data_format": {"s": "TkhXQw=="}, "filter_format": {"s": "SFdJTw=="}, "fused_ops": {"list": {"s": ["Qmlhc0FkZA=="]}}, "num_args": {"i": "1"}, "strides": {"list": {"i": ["1", "1", "1", "1"]}}, "TArgs": {"list": {"type": ["DT_FLOAT"]}}, "padding": {"s": "U0FNRQ=="}, "use_cudnn_on_gpu": {"b": true}, "leakyrelu_alpha": {"f": 0.2}, "epsilon": {"f": 0.0}, "T": {"type": "DT_FLOAT"}, "explicit_paddings": {"list": {}}, "dilations": {"list": {"i": ["1", "1", "1", "1"]}}}}, {"name": "StatefulPartitionedCall/functional_1_1/MobileNetV3Small_1/activation_29_1/truediv", "op": "Mul", "input": ["ConstantFolding/StatefulPartitionedCall/functional_1_1/MobileNetV3Small_1/activation_29_1/truediv_recip", "StatefulPartitionedCall/functional_1_1/MobileNetV3Small_1/expanded_conv_8_expand_bn_1/batchnorm/add_1"], "attr": {"_grappler_ArithmeticOptimizer_MinimizeBroadcasts": {"b": true}, "T": {"type": "DT_FLOAT"}}}, {"name": "StatefulPartitionedCall/functional_1_1/MobileNetV3Small_1/activation_29_1/add", "op": "AddV2", "input": ["StatefulPartitionedCall/functional_1_1/MobileNetV3Small_1/expanded_conv_8_expand_bn_1/batchnorm/add_1", "StatefulPartitionedCall/functional_1_1/MobileNetV3Small_1/activation_29_1/Const"], "attr": {"T": {"type": "DT_FLOAT"}}}, {"name": "StatefulPartitionedCall/functional_1_1/MobileNetV3Small_1/activation_29_1/Relu6", "op": "Relu6", "input": ["StatefulPartitionedCall/functional_1_1/MobileNetV3Small_1/activation_29_1/add"], "attr": {"T": {"type": "DT_FLOAT"}}}, {"name": "StatefulPartitionedCall/functional_1_1/MobileNetV3Small_1/activation_29_1/mul", "op": "Mul", "input": ["StatefulPartitionedCall/functional_1_1/MobileNetV3Small_1/activation_29_1/truediv", "StatefulPartitionedCall/functional_1_1/MobileNetV3Small_1/activation_29_1/Relu6"], "attr": {"_grappler_ArithmeticOptimizer_MinimizeBroadcasts": {"b": true}, "T": {"type": "DT_FLOAT"}}}, {"name": "StatefulPartitionedCall/functional_1_1/MobileNetV3Small_1/expanded_conv_8_depthwise_pad_1/Pad", "op": "Pad", "input": ["StatefulPartitionedCall/functional_1_1/MobileNetV3Small_1/activation_29_1/mul", "StatefulPartitionedCall/functional_1_1/MobileNetV3Small_1/expanded_conv_8_depthwise_pad_1/Const"], "attr": {"Tpaddings": {"type": "DT_INT32"}, "T": {"type": "DT_FLOAT"}}}, {"name": "StatefulPartitionedCall/functional_1_1/MobileNetV3Small_1/expanded_conv_8_depthwise_1/depthwise", "op": "DepthwiseConv2dNative", "input": ["StatefulPartitionedCall/functional_1_1/MobileNetV3Small_1/expanded_conv_8_depthwise_pad_1/Pad", "StatefulPartitionedCall/functional_1_1/MobileNetV3Small_1/expanded_conv_8_depthwise_1/depthwise/ReadVariableOp"], "attr": {"padding": {"s": "VkFMSUQ="}, "data_format": {"s": "TkhXQw=="}, "T": {"type": "DT_FLOAT"}, "explicit_paddings": {"list": {}}, "dilations": {"list": {"i": ["1", "1", "1", "1"]}}, "strides": {"list": {"i": ["1", "2", "2", "1"]}}}}, {"name": "StatefulPartitionedCall/functional_1_1/MobileNetV3Small_1/expanded_conv_8_depthwise_bn_1/batchnorm/mul_1", "op": "Mul", "input": ["StatefulPartitionedCall/functional_1_1/MobileNetV3Small_1/expanded_conv_8_depthwise_1/depthwise", "StatefulPartitionedCall/functional_1_1/MobileNetV3Small_1/expanded_conv_8_depthwise_bn_1/batchnorm/mul"], "attr": {"T": {"type": "DT_FLOAT"}}}, {"name": "StatefulPartitionedCall/functional_1_1/MobileNetV3Small_1/expanded_conv_8_depthwise_bn_1/batchnorm/add_1", "op": "AddV2", "input": ["StatefulPartitionedCall/functional_1_1/MobileNetV3Small_1/expanded_conv_8_depthwise_bn_1/batchnorm/mul_1", "StatefulPartitionedCall/functional_1_1/MobileNetV3Small_1/expanded_conv_8_depthwise_bn_1/batchnorm/sub"], "attr": {"T": {"type": "DT_FLOAT"}}}, {"name": "StatefulPartitionedCall/functional_1_1/MobileNetV3Small_1/activation_30_1/truediv", "op": "Mul", "input": ["ConstantFolding/StatefulPartitionedCall/functional_1_1/MobileNetV3Small_1/activation_30_1/truediv_recip", "StatefulPartitionedCall/functional_1_1/MobileNetV3Small_1/expanded_conv_8_depthwise_bn_1/batchnorm/add_1"], "attr": {"_grappler_ArithmeticOptimizer_MinimizeBroadcasts": {"b": true}, "T": {"type": "DT_FLOAT"}}}, {"name": "StatefulPartitionedCall/functional_1_1/MobileNetV3Small_1/activation_30_1/add", "op": "AddV2", "input": ["StatefulPartitionedCall/functional_1_1/MobileNetV3Small_1/expanded_conv_8_depthwise_bn_1/batchnorm/add_1", "StatefulPartitionedCall/functional_1_1/MobileNetV3Small_1/activation_30_1/Const"], "attr": {"T": {"type": "DT_FLOAT"}}}, {"name": "StatefulPartitionedCall/functional_1_1/MobileNetV3Small_1/activation_30_1/Relu6", "op": "Relu6", "input": ["StatefulPartitionedCall/functional_1_1/MobileNetV3Small_1/activation_30_1/add"], "attr": {"T": {"type": "DT_FLOAT"}}}, {"name": "StatefulPartitionedCall/functional_1_1/MobileNetV3Small_1/activation_30_1/mul", "op": "Mul", "input": ["StatefulPartitionedCall/functional_1_1/MobileNetV3Small_1/activation_30_1/truediv", "StatefulPartitionedCall/functional_1_1/MobileNetV3Small_1/activation_30_1/Relu6"], "attr": {"_grappler_ArithmeticOptimizer_MinimizeBroadcasts": {"b": true}, "T": {"type": "DT_FLOAT"}}}, {"name": "StatefulPartitionedCall/functional_1_1/MobileNetV3Small_1/expanded_conv_8_squeeze_excite_avg_pool_1/Mean", "op": "Mean", "input": ["StatefulPartitionedCall/functional_1_1/MobileNetV3Small_1/activation_30_1/mul", "StatefulPartitionedCall/functional_1_1/MobileNetV3Small_1/expanded_conv_8_squeeze_excite_avg_pool_1/Mean/reduction_indices"], "attr": {"T": {"type": "DT_FLOAT"}, "Tidx": {"type": "DT_INT32"}, "keep_dims": {"b": true}}}, {"name": "StatefulPartitionedCall/functional_1_1/MobileNetV3Small_1/expanded_conv_8_squeeze_excite_relu_1/Relu", "op": "_FusedConv2D", "input": ["StatefulPartitionedCall/functional_1_1/MobileNetV3Small_1/expanded_conv_8_squeeze_excite_avg_pool_1/Mean", "StatefulPartitionedCall/functional_1_1/MobileNetV3Small_1/expanded_conv_8_squeeze_excite_conv_1/convolution/ReadVariableOp", "StatefulPartitionedCall/functional_1_1/MobileNetV3Small_1/expanded_conv_8_squeeze_excite_conv_1/Squeeze"], "device": "/device:CPU:0", "attr": {"num_host_args": {"i": "0"}, "data_format": {"s": "TkhXQw=="}, "filter_format": {"s": "SFdJTw=="}, "fused_ops": {"list": {"s": ["Qmlhc0FkZA==", "UmVsdQ=="]}}, "num_args": {"i": "1"}, "strides": {"list": {"i": ["1", "1", "1", "1"]}}, "TArgs": {"list": {"type": ["DT_FLOAT"]}}, "padding": {"s": "U0FNRQ=="}, "use_cudnn_on_gpu": {"b": true}, "leakyrelu_alpha": {"f": 0.2}, "epsilon": {"f": 0.0}, "T": {"type": "DT_FLOAT"}, "explicit_paddings": {"list": {}}, "dilations": {"list": {"i": ["1", "1", "1", "1"]}}}}, {"name": "StatefulPartitionedCall/functional_1_1/MobileNetV3Small_1/expanded_conv_8_squeeze_excite_conv_1_2/BiasAdd", "op": "_FusedConv2D", "input": ["StatefulPartitionedCall/functional_1_1/MobileNetV3Small_1/expanded_conv_8_squeeze_excite_relu_1/Relu", "StatefulPartitionedCall/functional_1_1/MobileNetV3Small_1/expanded_conv_8_squeeze_excite_conv_1_2/convolution/ReadVariableOp", "StatefulPartitionedCall/functional_1_1/MobileNetV3Small_1/expanded_conv_8_squeeze_excite_conv_1_2/Squeeze"], "device": "/device:CPU:0", "attr": {"num_host_args": {"i": "0"}, "data_format": {"s": "TkhXQw=="}, "filter_format": {"s": "SFdJTw=="}, "strides": {"list": {"i": ["1", "1", "1", "1"]}}, "num_args": {"i": "1"}, "fused_ops": {"list": {"s": ["Qmlhc0FkZA=="]}}, "TArgs": {"list": {"type": ["DT_FLOAT"]}}, "padding": {"s": "U0FNRQ=="}, "use_cudnn_on_gpu": {"b": true}, "leakyrelu_alpha": {"f": 0.2}, "epsilon": {"f": 0.0}, "T": {"type": "DT_FLOAT"}, "explicit_paddings": {"list": {}}, "dilations": {"list": {"i": ["1", "1", "1", "1"]}}}}, {"name": "StatefulPartitionedCall/functional_1_1/MobileNetV3Small_1/Add_6", "op": "AddV2", "input": ["StatefulPartitionedCall/functional_1_1/MobileNetV3Small_1/expanded_conv_8_squeeze_excite_conv_1_2/BiasAdd", "StatefulPartitionedCall/functional_1_1/MobileNetV3Small_1/Const_12"], "attr": {"T": {"type": "DT_FLOAT"}}}, {"name": "StatefulPartitionedCall/functional_1_1/MobileNetV3Small_1/re_lu_25_1/Relu6", "op": "Relu6", "input": ["StatefulPartitionedCall/functional_1_1/MobileNetV3Small_1/Add_6"], "attr": {"T": {"type": "DT_FLOAT"}}}, {"name": "StatefulPartitionedCall/functional_1_1/MobileNetV3Small_1/Mul_6", "op": "Mul", "input": ["StatefulPartitionedCall/functional_1_1/MobileNetV3Small_1/Const_13", "StatefulPartitionedCall/functional_1_1/MobileNetV3Small_1/re_lu_25_1/Relu6"], "attr": {"_grappler_ArithmeticOptimizer_MinimizeBroadcasts": {"b": true}, "T": {"type": "DT_FLOAT"}}}, {"name": "StatefulPartitionedCall/functional_1_1/MobileNetV3Small_1/expanded_conv_8_squeeze_excite_mul_1/Mul", "op": "Mul", "input": ["StatefulPartitionedCall/functional_1_1/MobileNetV3Small_1/Mul_6", "StatefulPartitionedCall/functional_1_1/MobileNetV3Small_1/activation_30_1/mul"], "attr": {"_grappler_ArithmeticOptimizer_MinimizeBroadcasts": {"b": true}, "T": {"type": "DT_FLOAT"}}}, {"name": "StatefulPartitionedCall/functional_1_1/MobileNetV3Small_1/expanded_conv_8_project_bn_1/batchnorm/add_1", "op": "_FusedConv2D", "input": ["StatefulPartitionedCall/functional_1_1/MobileNetV3Small_1/expanded_conv_8_squeeze_excite_mul_1/Mul", "StatefulPartitionedCall/functional_1_1/MobileNetV3Small_1/expanded_conv_8_project_1/convolution/merged_input", "StatefulPartitionedCall/functional_1_1/MobileNetV3Small_1/expanded_conv_8_project_bn_1/batchnorm/sub"], "device": "/device:CPU:0", "attr": {"num_host_args": {"i": "0"}, "data_format": {"s": "TkhXQw=="}, "filter_format": {"s": "SFdJTw=="}, "strides": {"list": {"i": ["1", "1", "1", "1"]}}, "num_args": {"i": "1"}, "fused_ops": {"list": {"s": ["Qmlhc0FkZA=="]}}, "TArgs": {"list": {"type": ["DT_FLOAT"]}}, "padding": {"s": "U0FNRQ=="}, "use_cudnn_on_gpu": {"b": true}, "leakyrelu_alpha": {"f": 0.2}, "epsilon": {"f": 0.0}, "T": {"type": "DT_FLOAT"}, "explicit_paddings": {"list": {}}, "dilations": {"list": {"i": ["1", "1", "1", "1"]}}}}, {"name": "StatefulPartitionedCall/functional_1_1/MobileNetV3Small_1/expanded_conv_9_expand_bn_1/batchnorm/add_1", "op": "_FusedConv2D", "input": ["StatefulPartitionedCall/functional_1_1/MobileNetV3Small_1/expanded_conv_8_project_bn_1/batchnorm/add_1", "StatefulPartitionedCall/functional_1_1/MobileNetV3Small_1/expanded_conv_9_expand_1/convolution/merged_input", "StatefulPartitionedCall/functional_1_1/MobileNetV3Small_1/expanded_conv_9_expand_bn_1/batchnorm/sub"], "device": "/device:CPU:0", "attr": {"num_host_args": {"i": "0"}, "data_format": {"s": "TkhXQw=="}, "filter_format": {"s": "SFdJTw=="}, "fused_ops": {"list": {"s": ["Qmlhc0FkZA=="]}}, "num_args": {"i": "1"}, "strides": {"list": {"i": ["1", "1", "1", "1"]}}, "TArgs": {"list": {"type": ["DT_FLOAT"]}}, "padding": {"s": "U0FNRQ=="}, "use_cudnn_on_gpu": {"b": true}, "leakyrelu_alpha": {"f": 0.2}, "epsilon": {"f": 0.0}, "T": {"type": "DT_FLOAT"}, "explicit_paddings": {"list": {}}, "dilations": {"list": {"i": ["1", "1", "1", "1"]}}}}, {"name": "StatefulPartitionedCall/functional_1_1/MobileNetV3Small_1/activation_31_1/truediv", "op": "Mul", "input": ["ConstantFolding/StatefulPartitionedCall/functional_1_1/MobileNetV3Small_1/activation_31_1/truediv_recip", "StatefulPartitionedCall/functional_1_1/MobileNetV3Small_1/expanded_conv_9_expand_bn_1/batchnorm/add_1"], "attr": {"_grappler_ArithmeticOptimizer_MinimizeBroadcasts": {"b": true}, "T": {"type": "DT_FLOAT"}}}, {"name": "StatefulPartitionedCall/functional_1_1/MobileNetV3Small_1/activation_31_1/add", "op": "AddV2", "input": ["StatefulPartitionedCall/functional_1_1/MobileNetV3Small_1/expanded_conv_9_expand_bn_1/batchnorm/add_1", "StatefulPartitionedCall/functional_1_1/MobileNetV3Small_1/activation_31_1/Const"], "attr": {"T": {"type": "DT_FLOAT"}}}, {"name": "StatefulPartitionedCall/functional_1_1/MobileNetV3Small_1/activation_31_1/Relu6", "op": "Relu6", "input": ["StatefulPartitionedCall/functional_1_1/MobileNetV3Small_1/activation_31_1/add"], "attr": {"T": {"type": "DT_FLOAT"}}}, {"name": "StatefulPartitionedCall/functional_1_1/MobileNetV3Small_1/activation_31_1/mul", "op": "Mul", "input": ["StatefulPartitionedCall/functional_1_1/MobileNetV3Small_1/activation_31_1/truediv", "StatefulPartitionedCall/functional_1_1/MobileNetV3Small_1/activation_31_1/Relu6"], "attr": {"_grappler_ArithmeticOptimizer_MinimizeBroadcasts": {"b": true}, "T": {"type": "DT_FLOAT"}}}, {"name": "StatefulPartitionedCall/functional_1_1/MobileNetV3Small_1/expanded_conv_9_depthwise_1/depthwise", "op": "DepthwiseConv2dNative", "input": ["StatefulPartitionedCall/functional_1_1/MobileNetV3Small_1/activation_31_1/mul", "StatefulPartitionedCall/functional_1_1/MobileNetV3Small_1/expanded_conv_9_depthwise_1/depthwise/ReadVariableOp"], "attr": {"padding": {"s": "U0FNRQ=="}, "data_format": {"s": "TkhXQw=="}, "T": {"type": "DT_FLOAT"}, "explicit_paddings": {"list": {}}, "dilations": {"list": {"i": ["1", "1", "1", "1"]}}, "strides": {"list": {"i": ["1", "1", "1", "1"]}}}}, {"name": "StatefulPartitionedCall/functional_1_1/MobileNetV3Small_1/expanded_conv_9_depthwise_bn_1/batchnorm/mul_1", "op": "Mul", "input": ["StatefulPartitionedCall/functional_1_1/MobileNetV3Small_1/expanded_conv_9_depthwise_1/depthwise", "StatefulPartitionedCall/functional_1_1/MobileNetV3Small_1/expanded_conv_9_depthwise_bn_1/batchnorm/mul"], "attr": {"T": {"type": "DT_FLOAT"}}}, {"name": "StatefulPartitionedCall/functional_1_1/MobileNetV3Small_1/expanded_conv_9_depthwise_bn_1/batchnorm/add_1", "op": "AddV2", "input": ["StatefulPartitionedCall/functional_1_1/MobileNetV3Small_1/expanded_conv_9_depthwise_bn_1/batchnorm/mul_1", "StatefulPartitionedCall/functional_1_1/MobileNetV3Small_1/expanded_conv_9_depthwise_bn_1/batchnorm/sub"], "attr": {"T": {"type": "DT_FLOAT"}}}, {"name": "StatefulPartitionedCall/functional_1_1/MobileNetV3Small_1/activation_32_1/truediv", "op": "Mul", "input": ["ConstantFolding/StatefulPartitionedCall/functional_1_1/MobileNetV3Small_1/activation_32_1/truediv_recip", "StatefulPartitionedCall/functional_1_1/MobileNetV3Small_1/expanded_conv_9_depthwise_bn_1/batchnorm/add_1"], "attr": {"_grappler_ArithmeticOptimizer_MinimizeBroadcasts": {"b": true}, "T": {"type": "DT_FLOAT"}}}, {"name": "StatefulPartitionedCall/functional_1_1/MobileNetV3Small_1/activation_32_1/add", "op": "AddV2", "input": ["StatefulPartitionedCall/functional_1_1/MobileNetV3Small_1/expanded_conv_9_depthwise_bn_1/batchnorm/add_1", "StatefulPartitionedCall/functional_1_1/MobileNetV3Small_1/activation_32_1/Const"], "attr": {"T": {"type": "DT_FLOAT"}}}, {"name": "StatefulPartitionedCall/functional_1_1/MobileNetV3Small_1/activation_32_1/Relu6", "op": "Relu6", "input": ["StatefulPartitionedCall/functional_1_1/MobileNetV3Small_1/activation_32_1/add"], "attr": {"T": {"type": "DT_FLOAT"}}}, {"name": "StatefulPartitionedCall/functional_1_1/MobileNetV3Small_1/activation_32_1/mul", "op": "Mul", "input": ["StatefulPartitionedCall/functional_1_1/MobileNetV3Small_1/activation_32_1/truediv", "StatefulPartitionedCall/functional_1_1/MobileNetV3Small_1/activation_32_1/Relu6"], "attr": {"_grappler_ArithmeticOptimizer_MinimizeBroadcasts": {"b": true}, "T": {"type": "DT_FLOAT"}}}, {"name": "StatefulPartitionedCall/functional_1_1/MobileNetV3Small_1/expanded_conv_9_squeeze_excite_avg_pool_1/Mean", "op": "Mean", "input": ["StatefulPartitionedCall/functional_1_1/MobileNetV3Small_1/activation_32_1/mul", "StatefulPartitionedCall/functional_1_1/MobileNetV3Small_1/expanded_conv_9_squeeze_excite_avg_pool_1/Mean/reduction_indices"], "attr": {"Tidx": {"type": "DT_INT32"}, "T": {"type": "DT_FLOAT"}, "keep_dims": {"b": true}}}, {"name": "StatefulPartitionedCall/functional_1_1/MobileNetV3Small_1/expanded_conv_9_squeeze_excite_relu_1/Relu", "op": "_FusedConv2D", "input": ["StatefulPartitionedCall/functional_1_1/MobileNetV3Small_1/expanded_conv_9_squeeze_excite_avg_pool_1/Mean", "StatefulPartitionedCall/functional_1_1/MobileNetV3Small_1/expanded_conv_9_squeeze_excite_conv_1/convolution/ReadVariableOp", "StatefulPartitionedCall/functional_1_1/MobileNetV3Small_1/expanded_conv_9_squeeze_excite_conv_1/Squeeze"], "device": "/device:CPU:0", "attr": {"num_host_args": {"i": "0"}, "data_format": {"s": "TkhXQw=="}, "filter_format": {"s": "SFdJTw=="}, "strides": {"list": {"i": ["1", "1", "1", "1"]}}, "num_args": {"i": "1"}, "fused_ops": {"list": {"s": ["Qmlhc0FkZA==", "UmVsdQ=="]}}, "TArgs": {"list": {"type": ["DT_FLOAT"]}}, "padding": {"s": "U0FNRQ=="}, "use_cudnn_on_gpu": {"b": true}, "leakyrelu_alpha": {"f": 0.2}, "epsilon": {"f": 0.0}, "T": {"type": "DT_FLOAT"}, "explicit_paddings": {"list": {}}, "dilations": {"list": {"i": ["1", "1", "1", "1"]}}}}, {"name": "StatefulPartitionedCall/functional_1_1/MobileNetV3Small_1/expanded_conv_9_squeeze_excite_conv_1_2/BiasAdd", "op": "_FusedConv2D", "input": ["StatefulPartitionedCall/functional_1_1/MobileNetV3Small_1/expanded_conv_9_squeeze_excite_relu_1/Relu", "StatefulPartitionedCall/functional_1_1/MobileNetV3Small_1/expanded_conv_9_squeeze_excite_conv_1_2/convolution/ReadVariableOp", "StatefulPartitionedCall/functional_1_1/MobileNetV3Small_1/expanded_conv_9_squeeze_excite_conv_1_2/Squeeze"], "device": "/device:CPU:0", "attr": {"num_host_args": {"i": "0"}, "data_format": {"s": "TkhXQw=="}, "filter_format": {"s": "SFdJTw=="}, "strides": {"list": {"i": ["1", "1", "1", "1"]}}, "num_args": {"i": "1"}, "fused_ops": {"list": {"s": ["Qmlhc0FkZA=="]}}, "TArgs": {"list": {"type": ["DT_FLOAT"]}}, "padding": {"s": "U0FNRQ=="}, "use_cudnn_on_gpu": {"b": true}, "leakyrelu_alpha": {"f": 0.2}, "epsilon": {"f": 0.0}, "T": {"type": "DT_FLOAT"}, "explicit_paddings": {"list": {}}, "dilations": {"list": {"i": ["1", "1", "1", "1"]}}}}, {"name": "StatefulPartitionedCall/functional_1_1/MobileNetV3Small_1/Add_7", "op": "AddV2", "input": ["StatefulPartitionedCall/functional_1_1/MobileNetV3Small_1/expanded_conv_9_squeeze_excite_conv_1_2/BiasAdd", "StatefulPartitionedCall/functional_1_1/MobileNetV3Small_1/Const_14"], "attr": {"T": {"type": "DT_FLOAT"}}}, {"name": "StatefulPartitionedCall/functional_1_1/MobileNetV3Small_1/re_lu_26_1/Relu6", "op": "Relu6", "input": ["StatefulPartitionedCall/functional_1_1/MobileNetV3Small_1/Add_7"], "attr": {"T": {"type": "DT_FLOAT"}}}, {"name": "StatefulPartitionedCall/functional_1_1/MobileNetV3Small_1/Mul_7", "op": "Mul", "input": ["StatefulPartitionedCall/functional_1_1/MobileNetV3Small_1/Const_15", "StatefulPartitionedCall/functional_1_1/MobileNetV3Small_1/re_lu_26_1/Relu6"], "attr": {"_grappler_ArithmeticOptimizer_MinimizeBroadcasts": {"b": true}, "T": {"type": "DT_FLOAT"}}}, {"name": "StatefulPartitionedCall/functional_1_1/MobileNetV3Small_1/expanded_conv_9_squeeze_excite_mul_1/Mul", "op": "Mul", "input": ["StatefulPartitionedCall/functional_1_1/MobileNetV3Small_1/Mul_7", "StatefulPartitionedCall/functional_1_1/MobileNetV3Small_1/activation_32_1/mul"], "attr": {"_grappler_ArithmeticOptimizer_MinimizeBroadcasts": {"b": true}, "T": {"type": "DT_FLOAT"}}}, {"name": "StatefulPartitionedCall/functional_1_1/MobileNetV3Small_1/expanded_conv_9_project_bn_1/batchnorm/mul_1", "op": "Conv2D", "input": ["StatefulPartitionedCall/functional_1_1/MobileNetV3Small_1/expanded_conv_9_squeeze_excite_mul_1/Mul", "StatefulPartitionedCall/functional_1_1/MobileNetV3Small_1/expanded_conv_9_project_1/convolution/merged_input"], "device": "/device:CPU:0", "attr": {"padding": {"s": "U0FNRQ=="}, "data_format": {"s": "TkhXQw=="}, "use_cudnn_on_gpu": {"b": true}, "strides": {"list": {"i": ["1", "1", "1", "1"]}}, "T": {"type": "DT_FLOAT"}, "explicit_paddings": {"list": {}}, "dilations": {"list": {"i": ["1", "1", "1", "1"]}}}}, {"name": "StatefulPartitionedCall/functional_1_1/MobileNetV3Small_1/expanded_conv_9_add_1/ArithmeticOptimizer/AddOpsRewrite_Leaf_1_Add", "op": "AddN", "input": ["StatefulPartitionedCall/functional_1_1/MobileNetV3Small_1/expanded_conv_8_project_bn_1/batchnorm/add_1", "StatefulPartitionedCall/functional_1_1/MobileNetV3Small_1/expanded_conv_9_project_bn_1/batchnorm/mul_1"], "attr": {"N": {"i": "2"}, "T": {"type": "DT_FLOAT"}, "_grappler_ArithmeticOptimizer_AddOpsRewriteStage": {"b": true}}}, {"name": "StatefulPartitionedCall/functional_1_1/MobileNetV3Small_1/expanded_conv_9_add_1/ArithmeticOptimizer/AddOpsRewrite_Add", "op": "AddV2", "input": ["StatefulPartitionedCall/functional_1_1/MobileNetV3Small_1/expanded_conv_9_project_bn_1/batchnorm/sub", "StatefulPartitionedCall/functional_1_1/MobileNetV3Small_1/expanded_conv_9_add_1/ArithmeticOptimizer/AddOpsRewrite_Leaf_1_Add"], "attr": {"T": {"type": "DT_FLOAT"}, "_grappler_ArithmeticOptimizer_AddOpsRewriteStage": {"b": true}}}, {"name": "StatefulPartitionedCall/functional_1_1/MobileNetV3Small_1/expanded_conv_10_expand_bn_1/batchnorm/add_1", "op": "_FusedConv2D", "input": ["StatefulPartitionedCall/functional_1_1/MobileNetV3Small_1/expanded_conv_9_add_1/ArithmeticOptimizer/AddOpsRewrite_Add", "StatefulPartitionedCall/functional_1_1/MobileNetV3Small_1/expanded_conv_10_expand_1/convolution/merged_input", "StatefulPartitionedCall/functional_1_1/MobileNetV3Small_1/expanded_conv_10_expand_bn_1/batchnorm/sub"], "device": "/device:CPU:0", "attr": {"num_host_args": {"i": "0"}, "data_format": {"s": "TkhXQw=="}, "filter_format": {"s": "SFdJTw=="}, "fused_ops": {"list": {"s": ["Qmlhc0FkZA=="]}}, "num_args": {"i": "1"}, "strides": {"list": {"i": ["1", "1", "1", "1"]}}, "TArgs": {"list": {"type": ["DT_FLOAT"]}}, "padding": {"s": "U0FNRQ=="}, "use_cudnn_on_gpu": {"b": true}, "leakyrelu_alpha": {"f": 0.2}, "epsilon": {"f": 0.0}, "T": {"type": "DT_FLOAT"}, "explicit_paddings": {"list": {}}, "dilations": {"list": {"i": ["1", "1", "1", "1"]}}}}, {"name": "StatefulPartitionedCall/functional_1_1/MobileNetV3Small_1/activation_33_1/truediv", "op": "Mul", "input": ["ConstantFolding/StatefulPartitionedCall/functional_1_1/MobileNetV3Small_1/activation_33_1/truediv_recip", "StatefulPartitionedCall/functional_1_1/MobileNetV3Small_1/expanded_conv_10_expand_bn_1/batchnorm/add_1"], "attr": {"_grappler_ArithmeticOptimizer_MinimizeBroadcasts": {"b": true}, "T": {"type": "DT_FLOAT"}}}, {"name": "StatefulPartitionedCall/functional_1_1/MobileNetV3Small_1/activation_33_1/add", "op": "AddV2", "input": ["StatefulPartitionedCall/functional_1_1/MobileNetV3Small_1/expanded_conv_10_expand_bn_1/batchnorm/add_1", "StatefulPartitionedCall/functional_1_1/MobileNetV3Small_1/activation_33_1/Const"], "attr": {"T": {"type": "DT_FLOAT"}}}, {"name": "StatefulPartitionedCall/functional_1_1/MobileNetV3Small_1/activation_33_1/Relu6", "op": "Relu6", "input": ["StatefulPartitionedCall/functional_1_1/MobileNetV3Small_1/activation_33_1/add"], "attr": {"T": {"type": "DT_FLOAT"}}}, {"name": "StatefulPartitionedCall/functional_1_1/MobileNetV3Small_1/activation_33_1/mul", "op": "Mul", "input": ["StatefulPartitionedCall/functional_1_1/MobileNetV3Small_1/activation_33_1/truediv", "StatefulPartitionedCall/functional_1_1/MobileNetV3Small_1/activation_33_1/Relu6"], "attr": {"_grappler_ArithmeticOptimizer_MinimizeBroadcasts": {"b": true}, "T": {"type": "DT_FLOAT"}}}, {"name": "StatefulPartitionedCall/functional_1_1/MobileNetV3Small_1/expanded_conv_10_depthwise_1/depthwise", "op": "DepthwiseConv2dNative", "input": ["StatefulPartitionedCall/functional_1_1/MobileNetV3Small_1/activation_33_1/mul", "StatefulPartitionedCall/functional_1_1/MobileNetV3Small_1/expanded_conv_10_depthwise_1/depthwise/ReadVariableOp"], "attr": {"padding": {"s": "U0FNRQ=="}, "data_format": {"s": "TkhXQw=="}, "T": {"type": "DT_FLOAT"}, "explicit_paddings": {"list": {}}, "dilations": {"list": {"i": ["1", "1", "1", "1"]}}, "strides": {"list": {"i": ["1", "1", "1", "1"]}}}}, {"name": "StatefulPartitionedCall/functional_1_1/MobileNetV3Small_1/expanded_conv_10_depthwise_bn_1/batchnorm/mul_1", "op": "Mul", "input": ["StatefulPartitionedCall/functional_1_1/MobileNetV3Small_1/expanded_conv_10_depthwise_1/depthwise", "StatefulPartitionedCall/functional_1_1/MobileNetV3Small_1/expanded_conv_10_depthwise_bn_1/batchnorm/mul"], "attr": {"T": {"type": "DT_FLOAT"}}}, {"name": "StatefulPartitionedCall/functional_1_1/MobileNetV3Small_1/expanded_conv_10_depthwise_bn_1/batchnorm/add_1", "op": "AddV2", "input": ["StatefulPartitionedCall/functional_1_1/MobileNetV3Small_1/expanded_conv_10_depthwise_bn_1/batchnorm/mul_1", "StatefulPartitionedCall/functional_1_1/MobileNetV3Small_1/expanded_conv_10_depthwise_bn_1/batchnorm/sub"], "attr": {"T": {"type": "DT_FLOAT"}}}, {"name": "StatefulPartitionedCall/functional_1_1/MobileNetV3Small_1/activation_34_1/truediv", "op": "Mul", "input": ["ConstantFolding/StatefulPartitionedCall/functional_1_1/MobileNetV3Small_1/activation_34_1/truediv_recip", "StatefulPartitionedCall/functional_1_1/MobileNetV3Small_1/expanded_conv_10_depthwise_bn_1/batchnorm/add_1"], "attr": {"_grappler_ArithmeticOptimizer_MinimizeBroadcasts": {"b": true}, "T": {"type": "DT_FLOAT"}}}, {"name": "StatefulPartitionedCall/functional_1_1/MobileNetV3Small_1/activation_34_1/add", "op": "AddV2", "input": ["StatefulPartitionedCall/functional_1_1/MobileNetV3Small_1/expanded_conv_10_depthwise_bn_1/batchnorm/add_1", "StatefulPartitionedCall/functional_1_1/MobileNetV3Small_1/activation_34_1/Const"], "attr": {"T": {"type": "DT_FLOAT"}}}, {"name": "StatefulPartitionedCall/functional_1_1/MobileNetV3Small_1/activation_34_1/Relu6", "op": "Relu6", "input": ["StatefulPartitionedCall/functional_1_1/MobileNetV3Small_1/activation_34_1/add"], "attr": {"T": {"type": "DT_FLOAT"}}}, {"name": "StatefulPartitionedCall/functional_1_1/MobileNetV3Small_1/activation_34_1/mul", "op": "Mul", "input": ["StatefulPartitionedCall/functional_1_1/MobileNetV3Small_1/activation_34_1/truediv", "StatefulPartitionedCall/functional_1_1/MobileNetV3Small_1/activation_34_1/Relu6"], "attr": {"_grappler_ArithmeticOptimizer_MinimizeBroadcasts": {"b": true}, "T": {"type": "DT_FLOAT"}}}, {"name": "StatefulPartitionedCall/functional_1_1/MobileNetV3Small_1/expanded_conv_10_squeeze_excite_avg_pool_1/Mean", "op": "Mean", "input": ["StatefulPartitionedCall/functional_1_1/MobileNetV3Small_1/activation_34_1/mul", "StatefulPartitionedCall/functional_1_1/MobileNetV3Small_1/expanded_conv_10_squeeze_excite_avg_pool_1/Mean/reduction_indices"], "attr": {"Tidx": {"type": "DT_INT32"}, "T": {"type": "DT_FLOAT"}, "keep_dims": {"b": true}}}, {"name": "StatefulPartitionedCall/functional_1_1/MobileNetV3Small_1/expanded_conv_10_squeeze_excite_relu_1/Relu", "op": "_FusedConv2D", "input": ["StatefulPartitionedCall/functional_1_1/MobileNetV3Small_1/expanded_conv_10_squeeze_excite_avg_pool_1/Mean", "StatefulPartitionedCall/functional_1_1/MobileNetV3Small_1/expanded_conv_10_squeeze_excite_conv_1/convolution/ReadVariableOp", "StatefulPartitionedCall/functional_1_1/MobileNetV3Small_1/expanded_conv_10_squeeze_excite_conv_1/Squeeze"], "device": "/device:CPU:0", "attr": {"num_host_args": {"i": "0"}, "data_format": {"s": "TkhXQw=="}, "filter_format": {"s": "SFdJTw=="}, "fused_ops": {"list": {"s": ["Qmlhc0FkZA==", "UmVsdQ=="]}}, "num_args": {"i": "1"}, "strides": {"list": {"i": ["1", "1", "1", "1"]}}, "TArgs": {"list": {"type": ["DT_FLOAT"]}}, "padding": {"s": "U0FNRQ=="}, "use_cudnn_on_gpu": {"b": true}, "leakyrelu_alpha": {"f": 0.2}, "epsilon": {"f": 0.0}, "T": {"type": "DT_FLOAT"}, "explicit_paddings": {"list": {}}, "dilations": {"list": {"i": ["1", "1", "1", "1"]}}}}, {"name": "StatefulPartitionedCall/functional_1_1/MobileNetV3Small_1/expanded_conv_10_squeeze_excite_conv_1_2/BiasAdd", "op": "_FusedConv2D", "input": ["StatefulPartitionedCall/functional_1_1/MobileNetV3Small_1/expanded_conv_10_squeeze_excite_relu_1/Relu", "StatefulPartitionedCall/functional_1_1/MobileNetV3Small_1/expanded_conv_10_squeeze_excite_conv_1_2/convolution/ReadVariableOp", "StatefulPartitionedCall/functional_1_1/MobileNetV3Small_1/expanded_conv_10_squeeze_excite_conv_1_2/Squeeze"], "device": "/device:CPU:0", "attr": {"num_host_args": {"i": "0"}, "data_format": {"s": "TkhXQw=="}, "filter_format": {"s": "SFdJTw=="}, "strides": {"list": {"i": ["1", "1", "1", "1"]}}, "num_args": {"i": "1"}, "fused_ops": {"list": {"s": ["Qmlhc0FkZA=="]}}, "TArgs": {"list": {"type": ["DT_FLOAT"]}}, "padding": {"s": "U0FNRQ=="}, "use_cudnn_on_gpu": {"b": true}, "leakyrelu_alpha": {"f": 0.2}, "epsilon": {"f": 0.0}, "T": {"type": "DT_FLOAT"}, "explicit_paddings": {"list": {}}, "dilations": {"list": {"i": ["1", "1", "1", "1"]}}}}, {"name": "StatefulPartitionedCall/functional_1_1/MobileNetV3Small_1/Add_8", "op": "AddV2", "input": ["StatefulPartitionedCall/functional_1_1/MobileNetV3Small_1/expanded_conv_10_squeeze_excite_conv_1_2/BiasAdd", "StatefulPartitionedCall/functional_1_1/MobileNetV3Small_1/Const_16"], "attr": {"T": {"type": "DT_FLOAT"}}}, {"name": "StatefulPartitionedCall/functional_1_1/MobileNetV3Small_1/re_lu_27_1/Relu6", "op": "Relu6", "input": ["StatefulPartitionedCall/functional_1_1/MobileNetV3Small_1/Add_8"], "attr": {"T": {"type": "DT_FLOAT"}}}, {"name": "StatefulPartitionedCall/functional_1_1/MobileNetV3Small_1/Mul_8", "op": "Mul", "input": ["StatefulPartitionedCall/functional_1_1/MobileNetV3Small_1/Const_17", "StatefulPartitionedCall/functional_1_1/MobileNetV3Small_1/re_lu_27_1/Relu6"], "attr": {"_grappler_ArithmeticOptimizer_MinimizeBroadcasts": {"b": true}, "T": {"type": "DT_FLOAT"}}}, {"name": "StatefulPartitionedCall/functional_1_1/MobileNetV3Small_1/expanded_conv_10_squeeze_excite_mul_1/Mul", "op": "Mul", "input": ["StatefulPartitionedCall/functional_1_1/MobileNetV3Small_1/Mul_8", "StatefulPartitionedCall/functional_1_1/MobileNetV3Small_1/activation_34_1/mul"], "attr": {"_grappler_ArithmeticOptimizer_MinimizeBroadcasts": {"b": true}, "T": {"type": "DT_FLOAT"}}}, {"name": "StatefulPartitionedCall/functional_1_1/MobileNetV3Small_1/expanded_conv_10_project_bn_1/batchnorm/mul_1", "op": "Conv2D", "input": ["StatefulPartitionedCall/functional_1_1/MobileNetV3Small_1/expanded_conv_10_squeeze_excite_mul_1/Mul", "StatefulPartitionedCall/functional_1_1/MobileNetV3Small_1/expanded_conv_10_project_1/convolution/merged_input"], "device": "/device:CPU:0", "attr": {"padding": {"s": "U0FNRQ=="}, "data_format": {"s": "TkhXQw=="}, "use_cudnn_on_gpu": {"b": true}, "strides": {"list": {"i": ["1", "1", "1", "1"]}}, "T": {"type": "DT_FLOAT"}, "explicit_paddings": {"list": {}}, "dilations": {"list": {"i": ["1", "1", "1", "1"]}}}}, {"name": "StatefulPartitionedCall/functional_1_1/MobileNetV3Small_1/expanded_conv_10_add_1/ArithmeticOptimizer/AddOpsRewrite_Leaf_1_Add", "op": "AddN", "input": ["StatefulPartitionedCall/functional_1_1/MobileNetV3Small_1/expanded_conv_9_add_1/ArithmeticOptimizer/AddOpsRewrite_Add", "StatefulPartitionedCall/functional_1_1/MobileNetV3Small_1/expanded_conv_10_project_bn_1/batchnorm/mul_1"], "attr": {"N": {"i": "2"}, "T": {"type": "DT_FLOAT"}, "_grappler_ArithmeticOptimizer_AddOpsRewriteStage": {"b": true}}}, {"name": "StatefulPartitionedCall/functional_1_1/MobileNetV3Small_1/expanded_conv_10_add_1/ArithmeticOptimizer/AddOpsRewrite_Add", "op": "AddV2", "input": ["StatefulPartitionedCall/functional_1_1/MobileNetV3Small_1/expanded_conv_10_project_bn_1/batchnorm/sub", "StatefulPartitionedCall/functional_1_1/MobileNetV3Small_1/expanded_conv_10_add_1/ArithmeticOptimizer/AddOpsRewrite_Leaf_1_Add"], "attr": {"T": {"type": "DT_FLOAT"}, "_grappler_ArithmeticOptimizer_AddOpsRewriteStage": {"b": true}}}, {"name": "StatefulPartitionedCall/functional_1_1/MobileNetV3Small_1/conv_1_bn_1/batchnorm/add_1", "op": "_FusedConv2D", "input": ["StatefulPartitionedCall/functional_1_1/MobileNetV3Small_1/expanded_conv_10_add_1/ArithmeticOptimizer/AddOpsRewrite_Add", "StatefulPartitionedCall/functional_1_1/MobileNetV3Small_1/conv_1_2/convolution/merged_input", "StatefulPartitionedCall/functional_1_1/MobileNetV3Small_1/conv_1_bn_1/batchnorm/sub"], "device": "/device:CPU:0", "attr": {"num_host_args": {"i": "0"}, "data_format": {"s": "TkhXQw=="}, "filter_format": {"s": "SFdJTw=="}, "strides": {"list": {"i": ["1", "1", "1", "1"]}}, "num_args": {"i": "1"}, "fused_ops": {"list": {"s": ["Qmlhc0FkZA=="]}}, "TArgs": {"list": {"type": ["DT_FLOAT"]}}, "padding": {"s": "U0FNRQ=="}, "use_cudnn_on_gpu": {"b": true}, "leakyrelu_alpha": {"f": 0.2}, "epsilon": {"f": 0.0}, "T": {"type": "DT_FLOAT"}, "explicit_paddings": {"list": {}}, "dilations": {"list": {"i": ["1", "1", "1", "1"]}}}}, {"name": "StatefulPartitionedCall/functional_1_1/MobileNetV3Small_1/activation_35_1/truediv", "op": "Mul", "input": ["ConstantFolding/StatefulPartitionedCall/functional_1_1/MobileNetV3Small_1/activation_35_1/truediv_recip", "StatefulPartitionedCall/functional_1_1/MobileNetV3Small_1/conv_1_bn_1/batchnorm/add_1"], "attr": {"_grappler_ArithmeticOptimizer_MinimizeBroadcasts": {"b": true}, "T": {"type": "DT_FLOAT"}}}, {"name": "StatefulPartitionedCall/functional_1_1/MobileNetV3Small_1/activation_35_1/add", "op": "AddV2", "input": ["StatefulPartitionedCall/functional_1_1/MobileNetV3Small_1/conv_1_bn_1/batchnorm/add_1", "StatefulPartitionedCall/functional_1_1/MobileNetV3Small_1/activation_35_1/Const"], "attr": {"T": {"type": "DT_FLOAT"}}}, {"name": "StatefulPartitionedCall/functional_1_1/MobileNetV3Small_1/activation_35_1/Relu6", "op": "Relu6", "input": ["StatefulPartitionedCall/functional_1_1/MobileNetV3Small_1/activation_35_1/add"], "attr": {"T": {"type": "DT_FLOAT"}}}, {"name": "StatefulPartitionedCall/functional_1_1/MobileNetV3Small_1/activation_35_1/mul", "op": "Mul", "input": ["StatefulPartitionedCall/functional_1_1/MobileNetV3Small_1/activation_35_1/truediv", "StatefulPartitionedCall/functional_1_1/MobileNetV3Small_1/activation_35_1/Relu6"], "attr": {"_grappler_ArithmeticOptimizer_MinimizeBroadcasts": {"b": true}, "T": {"type": "DT_FLOAT"}}}, {"name": "StatefulPartitionedCall/functional_1_1/global_average_pooling2d_1_1/Mean", "op": "Mean", "input": ["StatefulPartitionedCall/functional_1_1/MobileNetV3Small_1/activation_35_1/mul", "StatefulPartitionedCall/functional_1_1/global_average_pooling2d_1_1/Mean/reduction_indices"], "attr": {"Tidx": {"type": "DT_INT32"}, "T": {"type": "DT_FLOAT"}, "keep_dims": {"b": false}}}, {"name": "StatefulPartitionedCall/functional_1_1/batch_normalization_1_1/batchnorm/mul_1", "op": "Mul", "input": ["StatefulPartitionedCall/functional_1_1/global_average_pooling2d_1_1/Mean", "StatefulPartitionedCall/functional_1_1/batch_normalization_1_1/batchnorm/mul"], "attr": {"T": {"type": "DT_FLOAT"}}}, {"name": "StatefulPartitionedCall/functional_1_1/batch_normalization_1_1/batchnorm/add_1", "op": "AddV2", "input": ["StatefulPartitionedCall/functional_1_1/batch_normalization_1_1/batchnorm/mul_1", "StatefulPartitionedCall/functional_1_1/batch_normalization_1_1/batchnorm/sub"], "attr": {"T": {"type": "DT_FLOAT"}}}, {"name": "StatefulPartitionedCall/functional_1_1/dense_2_1/Relu", "op": "_FusedMatMul", "input": ["StatefulPartitionedCall/functional_1_1/batch_normalization_1_1/batchnorm/add_1", "StatefulPartitionedCall/functional_1_1/dense_2_1/Cast/ReadVariableOp", "StatefulPartitionedCall/functional_1_1/dense_2_1/BiasAdd/ReadVariableOp"], "device": "/device:CPU:0", "attr": {"transpose_a": {"b": false}, "transpose_b": {"b": false}, "fused_ops": {"list": {"s": ["Qmlhc0FkZA==", "UmVsdQ=="]}}, "num_args": {"i": "1"}, "leakyrelu_alpha": {"f": 0.2}, "epsilon": {"f": 0.0}, "T": {"type": "DT_FLOAT"}}}, {"name": "StatefulPartitionedCall/functional_1_1/dense_3_1/Add", "op": "_FusedMatMul", "input": ["StatefulPartitionedCall/functional_1_1/dense_2_1/Relu", "StatefulPartitionedCall/functional_1_1/dense_3_1/Cast/ReadVariableOp", "StatefulPartitionedCall/functional_1_1/dense_3_1/Add/ReadVariableOp"], "device": "/device:CPU:0", "attr": {"transpose_a": {"b": false}, "transpose_b": {"b": false}, "fused_ops": {"list": {"s": ["Qmlhc0FkZA=="]}}, "leakyrelu_alpha": {"f": 0.2}, "num_args": {"i": "1"}, "epsilon": {"f": 0.0}, "T": {"type": "DT_FLOAT"}}}, {"name": "StatefulPartitionedCall/functional_1_1/dense_3_1/Sigmoid", "op": "Sigmoid", "input": ["StatefulPartitionedCall/functional_1_1/dense_3_1/Add"], "attr": {"T": {"type": "DT_FLOAT"}}}, {"name": "Identity", "op": "Identity", "input": ["StatefulPartitionedCall/functional_1_1/dense_3_1/Sigmoid"], "attr": {"T": {"type": "DT_FLOAT"}}}], "library": {}, "versions": {"producer": 2129}}, "weightsManifest": [{"paths": ["group1-shard1of1.bin"], "weights": [{"name": "ConstantFolding/StatefulPartitionedCall/functional_1_1/MobileNetV3Small_1/activation_35_1/truediv_recip", "shape": [], "dtype": "float32"}, {"name": "StatefulPartitionedCall/functional_1_1/MobileNetV3Small_1/expanded_conv_10_project_bn_1/batchnorm/sub", "shape": [96], "dtype": "float32"}, {"name": "StatefulPartitionedCall/functional_1_1/MobileNetV3Small_1/Const_17", "shape": [], "dtype": "float32"}, {"name": "StatefulPartitionedCall/functional_1_1/MobileNetV3Small_1/expanded_conv_10_squeeze_excite_avg_pool_1/Mean/reduction_indices", "shape": [2], "dtype": "int32"}, {"name": "StatefulPartitionedCall/functional_1_1/MobileNetV3Small_1/expanded_conv_10_squeeze_excite_conv_1/convolution/ReadVariableOp", "shape": [1, 1, 576, 144], "dtype": "float32"}, {"name": "StatefulPartitionedCall/functional_1_1/MobileNetV3Small_1/expanded_conv_10_squeeze_excite_conv_1/Squeeze", "shape": [144], "dtype": "float32"}, {"name": "StatefulPartitionedCall/functional_1_1/MobileNetV3Small_1/expanded_conv_10_squeeze_excite_conv_1_2/convolution/ReadVariableOp", "shape": [1, 1, 144, 576], "dtype": "float32"}, {"name": "StatefulPartitionedCall/functional_1_1/MobileNetV3Small_1/expanded_conv_10_squeeze_excite_conv_1_2/Squeeze", "shape": [576], "dtype": "float32"}, {"name": "StatefulPartitionedCall/functional_1_1/MobileNetV3Small_1/Const_16", "shape": [], "dtype": "float32"}, {"name": "ConstantFolding/StatefulPartitionedCall/functional_1_1/MobileNetV3Small_1/activation_34_1/truediv_recip", "shape": [], "dtype": "float32"}, {"name": "ConstantFolding/StatefulPartitionedCall/functional_1_1/MobileNetV3Small_1/activation_33_1/truediv_recip", "shape": [], "dtype": "float32"}, {"name": "StatefulPartitionedCall/functional_1_1/MobileNetV3Small_1/expanded_conv_9_project_bn_1/batchnorm/sub", "shape": [96], "dtype": "float32"}, {"name": "StatefulPartitionedCall/functional_1_1/MobileNetV3Small_1/Const_15", "shape": [], "dtype": "float32"}, {"name": "StatefulPartitionedCall/functional_1_1/MobileNetV3Small_1/expanded_conv_9_squeeze_excite_avg_pool_1/Mean/reduction_indices", "shape": [2], "dtype": "int32"}, {"name": "StatefulPartitionedCall/functional_1_1/MobileNetV3Small_1/expanded_conv_9_squeeze_excite_conv_1/convolution/ReadVariableOp", "shape": [1, 1, 576, 144], "dtype": "float32"}, {"name": "StatefulPartitionedCall/functional_1_1/MobileNetV3Small_1/expanded_conv_9_squeeze_excite_conv_1/Squeeze", "shape": [144], "dtype": "float32"}, {"name": "StatefulPartitionedCall/functional_1_1/MobileNetV3Small_1/expanded_conv_9_squeeze_excite_conv_1_2/convolution/ReadVariableOp", "shape": [1, 1, 144, 576], "dtype": "float32"}, {"name": "StatefulPartitionedCall/functional_1_1/MobileNetV3Small_1/expanded_conv_9_squeeze_excite_conv_1_2/Squeeze", "shape": [576], "dtype": "float32"}, {"name": "StatefulPartitionedCall/functional_1_1/MobileNetV3Small_1/Const_14", "shape": [], "dtype": "float32"}, {"name": "ConstantFolding/StatefulPartitionedCall/functional_1_1/MobileNetV3Small_1/activation_32_1/truediv_recip", "shape": [], "dtype": "float32"}, {"name": "ConstantFolding/StatefulPartitionedCall/functional_1_1/MobileNetV3Small_1/activation_31_1/truediv_recip", "shape": [], "dtype": "float32"}, {"name": "StatefulPartitionedCall/functional_1_1/MobileNetV3Small_1/Const_13", "shape": [], "dtype": "float32"}, {"name": "StatefulPartitionedCall/functional_1_1/MobileNetV3Small_1/expanded_conv_8_squeeze_excite_avg_pool_1/Mean/reduction_indices", "shape": [2], "dtype": "int32"}, {"name": "StatefulPartitionedCall/functional_1_1/MobileNetV3Small_1/expanded_conv_8_squeeze_excite_conv_1/convolution/ReadVariableOp", "shape": [1, 1, 288, 72], "dtype": "float32"}, {"name": "StatefulPartitionedCall/functional_1_1/MobileNetV3Small_1/expanded_conv_8_squeeze_excite_conv_1/Squeeze", "shape": [72], "dtype": "float32"}, {"name": "StatefulPartitionedCall/functional_1_1/MobileNetV3Small_1/expanded_conv_8_squeeze_excite_conv_1_2/convolution/ReadVariableOp", "shape": [1, 1, 72, 288], "dtype": "float32"}, {"name": "StatefulPartitionedCall/functional_1_1/MobileNetV3Small_1/expanded_conv_8_squeeze_excite_conv_1_2/Squeeze", "shape": [288], "dtype": "float32"}, {"name": "StatefulPartitionedCall/functional_1_1/MobileNetV3Small_1/Const_12", "shape": [], "dtype": "float32"}, {"name": "ConstantFolding/StatefulPartitionedCall/functional_1_1/MobileNetV3Small_1/activation_30_1/truediv_recip", "shape": [], "dtype": "float32"}, {"name": "ConstantFolding/StatefulPartitionedCall/functional_1_1/MobileNetV3Small_1/activation_29_1/truediv_recip", "shape": [], "dtype": "float32"}, {"name": "StatefulPartitionedCall/functional_1_1/MobileNetV3Small_1/expanded_conv_7_project_bn_1/batchnorm/sub", "shape": [48], "dtype": "float32"}, {"name": "StatefulPartitionedCall/functional_1_1/MobileNetV3Small_1/Const_11", "shape": [], "dtype": "float32"}, {"name": "StatefulPartitionedCall/functional_1_1/MobileNetV3Small_1/expanded_conv_7_squeeze_excite_avg_pool_1/Mean/reduction_indices", "shape": [2], "dtype": "int32"}, {"name": "StatefulPartitionedCall/functional_1_1/MobileNetV3Small_1/expanded_conv_7_squeeze_excite_conv_1/convolution/ReadVariableOp", "shape": [1, 1, 144, 40], "dtype": "float32"}, {"name": "StatefulPartitionedCall/functional_1_1/MobileNetV3Small_1/expanded_conv_7_squeeze_excite_conv_1/Squeeze", "shape": [40], "dtype": "float32"}, {"name": "StatefulPartitionedCall/functional_1_1/MobileNetV3Small_1/expanded_conv_7_squeeze_excite_conv_1_2/convolution/ReadVariableOp", "shape": [1, 1, 40, 144], "dtype": "float32"}, {"name": "StatefulPartitionedCall/functional_1_1/MobileNetV3Small_1/expanded_conv_7_squeeze_excite_conv_1_2/Squeeze", "shape": [144], "dtype": "float32"}, {"name": "StatefulPartitionedCall/functional_1_1/MobileNetV3Small_1/Const_10", "shape": [], "dtype": "float32"}, {"name": "ConstantFolding/StatefulPartitionedCall/functional_1_1/MobileNetV3Small_1/activation_28_1/truediv_recip", "shape": [], "dtype": "float32"}, {"name": "ConstantFolding/StatefulPartitionedCall/functional_1_1/MobileNetV3Small_1/activation_27_1/truediv_recip", "shape": [], "dtype": "float32"}, {"name": "StatefulPartitionedCall/functional_1_1/MobileNetV3Small_1/Const_9", "shape": [], "dtype": "float32"}, {"name": "StatefulPartitionedCall/functional_1_1/MobileNetV3Small_1/expanded_conv_6_squeeze_excite_avg_pool_1/Mean/reduction_indices", "shape": [2], "dtype": "int32"}, {"name": "StatefulPartitionedCall/functional_1_1/MobileNetV3Small_1/expanded_conv_6_squeeze_excite_conv_1/convolution/ReadVariableOp", "shape": [1, 1, 120, 32], "dtype": "float32"}, {"name": "StatefulPartitionedCall/functional_1_1/MobileNetV3Small_1/expanded_conv_6_squeeze_excite_conv_1/Squeeze", "shape": [32], "dtype": "float32"}, {"name": "StatefulPartitionedCall/functional_1_1/MobileNetV3Small_1/expanded_conv_6_squeeze_excite_conv_1_2/convolution/ReadVariableOp", "shape": [1, 1, 32, 120], "dtype": "float32"}, {"name": "StatefulPartitionedCall/functional_1_1/MobileNetV3Small_1/expanded_conv_6_squeeze_excite_conv_1_2/Squeeze", "shape": [120], "dtype": "float32"}, {"name": "StatefulPartitionedCall/functional_1_1/MobileNetV3Small_1/Const_8", "shape": [], "dtype": "float32"}, {"name": "ConstantFolding/StatefulPartitionedCall/functional_1_1/MobileNetV3Small_1/activation_26_1/truediv_recip", "shape": [], "dtype": "float32"}, {"name": "ConstantFolding/StatefulPartitionedCall/functional_1_1/MobileNetV3Small_1/activation_25_1/truediv_recip", "shape": [], "dtype": "float32"}, {"name": "StatefulPartitionedCall/functional_1_1/MobileNetV3Small_1/expanded_conv_5_project_bn_1/batchnorm/sub", "shape": [40], "dtype": "float32"}, {"name": "StatefulPartitionedCall/functional_1_1/MobileNetV3Small_1/Const_7", "shape": [], "dtype": "float32"}, {"name": "StatefulPartitionedCall/functional_1_1/MobileNetV3Small_1/expanded_conv_5_squeeze_excite_avg_pool_1/Mean/reduction_indices", "shape": [2], "dtype": "int32"}, {"name": "StatefulPartitionedCall/functional_1_1/MobileNetV3Small_1/expanded_conv_5_squeeze_excite_conv_1/convolution/ReadVariableOp", "shape": [1, 1, 240, 64], "dtype": "float32"}, {"name": "StatefulPartitionedCall/functional_1_1/MobileNetV3Small_1/expanded_conv_5_squeeze_excite_conv_1/Squeeze", "shape": [64], "dtype": "float32"}, {"name": "StatefulPartitionedCall/functional_1_1/MobileNetV3Small_1/expanded_conv_5_squeeze_excite_conv_1_2/convolution/ReadVariableOp", "shape": [1, 1, 64, 240], "dtype": "float32"}, {"name": "StatefulPartitionedCall/functional_1_1/MobileNetV3Small_1/expanded_conv_5_squeeze_excite_conv_1_2/Squeeze", "shape": [240], "dtype": "float32"}, {"name": "StatefulPartitionedCall/functional_1_1/MobileNetV3Small_1/Const_6", "shape": [], "dtype": "float32"}, {"name": "ConstantFolding/StatefulPartitionedCall/functional_1_1/MobileNetV3Small_1/activation_24_1/truediv_recip", "shape": [], "dtype": "float32"}, {"name": "ConstantFolding/StatefulPartitionedCall/functional_1_1/MobileNetV3Small_1/activation_23_1/truediv_recip", "shape": [], "dtype": "float32"}, {"name": "StatefulPartitionedCall/functional_1_1/MobileNetV3Small_1/expanded_conv_4_project_bn_1/batchnorm/sub", "shape": [40], "dtype": "float32"}, {"name": "StatefulPartitionedCall/functional_1_1/MobileNetV3Small_1/Const_5", "shape": [], "dtype": "float32"}, {"name": "StatefulPartitionedCall/functional_1_1/MobileNetV3Small_1/expanded_conv_4_squeeze_excite_avg_pool_1/Mean/reduction_indices", "shape": [2], "dtype": "int32"}, {"name": "StatefulPartitionedCall/functional_1_1/MobileNetV3Small_1/expanded_conv_4_squeeze_excite_conv_1/convolution/ReadVariableOp", "shape": [1, 1, 240, 64], "dtype": "float32"}, {"name": "StatefulPartitionedCall/functional_1_1/MobileNetV3Small_1/expanded_conv_4_squeeze_excite_conv_1/Squeeze", "shape": [64], "dtype": "float32"}, {"name": "StatefulPartitionedCall/functional_1_1/MobileNetV3Small_1/expanded_conv_4_squeeze_excite_conv_1_2/convolution/ReadVariableOp", "shape": [1, 1, 64, 240], "dtype": "float32"}, {"name": "StatefulPartitionedCall/functional_1_1/MobileNetV3Small_1/expanded_conv_4_squeeze_excite_conv_1_2/Squeeze", "shape": [240], "dtype": "float32"}, {"name": "StatefulPartitionedCall/functional_1_1/MobileNetV3Small_1/Const_4", "shape": [], "dtype": "float32"}, {"name": "ConstantFolding/StatefulPartitionedCall/functional_1_1/MobileNetV3Small_1/activation_22_1/truediv_recip", "shape": [], "dtype": "float32"}, {"name": "ConstantFolding/StatefulPartitionedCall/functional_1_1/MobileNetV3Small_1/activation_21_1/truediv_recip", "shape": [], "dtype": "float32"}, {"name": "StatefulPartitionedCall/functional_1_1/MobileNetV3Small_1/Const_3", "shape": [], "dtype": "float32"}, {"name": "StatefulPartitionedCall/functional_1_1/MobileNetV3Small_1/expanded_conv_3_squeeze_excite_avg_pool_1/Mean/reduction_indices", "shape": [2], "dtype": "int32"}, {"name": "StatefulPartitionedCall/functional_1_1/MobileNetV3Small_1/expanded_conv_3_squeeze_excite_conv_1/convolution/ReadVariableOp", "shape": [1, 1, 96, 24], "dtype": "float32"}, {"name": "StatefulPartitionedCall/functional_1_1/MobileNetV3Small_1/expanded_conv_3_squeeze_excite_conv_1/Squeeze", "shape": [24], "dtype": "float32"}, {"name": "StatefulPartitionedCall/functional_1_1/MobileNetV3Small_1/expanded_conv_3_squeeze_excite_conv_1_2/convolution/ReadVariableOp", "shape": [1, 1, 24, 96], "dtype": "float32"}, {"name": "StatefulPartitionedCall/functional_1_1/MobileNetV3Small_1/expanded_conv_3_squeeze_excite_conv_1_2/Squeeze", "shape": [96], "dtype": "float32"}, {"name": "StatefulPartitionedCall/functional_1_1/MobileNetV3Small_1/Const_2", "shape": [], "dtype": "float32"}, {"name": "ConstantFolding/StatefulPartitionedCall/functional_1_1/MobileNetV3Small_1/activation_20_1/truediv_recip", "shape": [], "dtype": "float32"}, {"name": "ConstantFolding/StatefulPartitionedCall/functional_1_1/MobileNetV3Small_1/activation_19_1/truediv_recip", "shape": [], "dtype": "float32"}, {"name": "StatefulPartitionedCall/functional_1_1/MobileNetV3Small_1/expanded_conv_2_project_bn_1/batchnorm/sub", "shape": [24], "dtype": "float32"}, {"name": "StatefulPartitionedCall/functional_1_1/MobileNetV3Small_1/Const_1", "shape": [], "dtype": "float32"}, {"name": "StatefulPartitionedCall/functional_1_1/MobileNetV3Small_1/expanded_conv_squeeze_excite_avg_pool_1/Mean/reduction_indices", "shape": [2], "dtype": "int32"}, {"name": "StatefulPartitionedCall/functional_1_1/MobileNetV3Small_1/expanded_conv_squeeze_excite_conv_1/convolution/ReadVariableOp", "shape": [1, 1, 16, 8], "dtype": "float32"}, {"name": "StatefulPartitionedCall/functional_1_1/MobileNetV3Small_1/expanded_conv_squeeze_excite_conv_1/Squeeze", "shape": [8], "dtype": "float32"}, {"name": "StatefulPartitionedCall/functional_1_1/MobileNetV3Small_1/expanded_conv_squeeze_excite_conv_1_2/convolution/ReadVariableOp", "shape": [1, 1, 8, 16], "dtype": "float32"}, {"name": "StatefulPartitionedCall/functional_1_1/MobileNetV3Small_1/expanded_conv_squeeze_excite_conv_1_2/Squeeze", "shape": [16], "dtype": "float32"}, {"name": "StatefulPartitionedCall/functional_1_1/MobileNetV3Small_1/Const", "shape": [], "dtype": "float32"}, {"name": "ConstantFolding/StatefulPartitionedCall/functional_1_1/MobileNetV3Small_1/activation_18_1/truediv_recip", "shape": [], "dtype": "float32"}, {"name": "StatefulPartitionedCall/functional_1_1/MobileNetV3Small_1/rescaling_1_1/Cast/x", "shape": [], "dtype": "float32"}, {"name": "StatefulPartitionedCall/functional_1_1/MobileNetV3Small_1/rescaling_1_1/Cast_1/x", "shape": [], "dtype": "float32"}, {"name": "StatefulPartitionedCall/functional_1_1/MobileNetV3Small_1/conv_1/convolution/merged_input", "shape": [3, 3, 3, 16], "dtype": "float32"}, {"name": "StatefulPartitionedCall/functional_1_1/MobileNetV3Small_1/conv_bn_1/batchnorm/sub", "shape": [16], "dtype": "float32"}, {"name": "StatefulPartitionedCall/functional_1_1/MobileNetV3Small_1/activation_18_1/Const", "shape": [], "dtype": "float32"}, {"name": "StatefulPartitionedCall/functional_1_1/MobileNetV3Small_1/expanded_conv_depthwise_pad_1/Const", "shape": [4, 2], "dtype": "int32"}, {"name": "StatefulPartitionedCall/functional_1_1/MobileNetV3Small_1/expanded_conv_depthwise_1/depthwise/ReadVariableOp", "shape": [3, 3, 16, 1], "dtype": "float32"}, {"name": "StatefulPartitionedCall/functional_1_1/MobileNetV3Small_1/expanded_conv_depthwise_bn_1/batchnorm/mul", "shape": [16], "dtype": "float32"}, {"name": "StatefulPartitionedCall/functional_1_1/MobileNetV3Small_1/expanded_conv_depthwise_bn_1/batchnorm/sub", "shape": [16], "dtype": "float32"}, {"name": "StatefulPartitionedCall/functional_1_1/MobileNetV3Small_1/expanded_conv_project_1/convolution/merged_input", "shape": [1, 1, 16, 16], "dtype": "float32"}, {"name": "StatefulPartitionedCall/functional_1_1/MobileNetV3Small_1/expanded_conv_project_bn_1/batchnorm/sub", "shape": [16], "dtype": "float32"}, {"name": "StatefulPartitionedCall/functional_1_1/MobileNetV3Small_1/expanded_conv_1_expand_1/convolution/merged_input", "shape": [1, 1, 16, 72], "dtype": "float32"}, {"name": "StatefulPartitionedCall/functional_1_1/MobileNetV3Small_1/expanded_conv_1_expand_bn_1/batchnorm/sub", "shape": [72], "dtype": "float32"}, {"name": "StatefulPartitionedCall/functional_1_1/MobileNetV3Small_1/expanded_conv_1_depthwise_pad_1/Const", "shape": [4, 2], "dtype": "int32"}, {"name": "StatefulPartitionedCall/functional_1_1/MobileNetV3Small_1/expanded_conv_1_depthwise_1/depthwise/ReadVariableOp", "shape": [3, 3, 72, 1], "dtype": "float32"}, {"name": "StatefulPartitionedCall/functional_1_1/MobileNetV3Small_1/expanded_conv_1_depthwise_bn_1/batchnorm/mul", "shape": [72], "dtype": "float32"}, {"name": "StatefulPartitionedCall/functional_1_1/MobileNetV3Small_1/expanded_conv_1_depthwise_bn_1/batchnorm/sub", "shape": [72], "dtype": "float32"}, {"name": "StatefulPartitionedCall/functional_1_1/MobileNetV3Small_1/expanded_conv_1_project_1/convolution/merged_input", "shape": [1, 1, 72, 24], "dtype": "float32"}, {"name": "StatefulPartitionedCall/functional_1_1/MobileNetV3Small_1/expanded_conv_1_project_bn_1/batchnorm/sub", "shape": [24], "dtype": "float32"}, {"name": "StatefulPartitionedCall/functional_1_1/MobileNetV3Small_1/expanded_conv_2_expand_1/convolution/merged_input", "shape": [1, 1, 24, 88], "dtype": "float32"}, {"name": "StatefulPartitionedCall/functional_1_1/MobileNetV3Small_1/expanded_conv_2_expand_bn_1/batchnorm/sub", "shape": [88], "dtype": "float32"}, {"name": "StatefulPartitionedCall/functional_1_1/MobileNetV3Small_1/expanded_conv_2_depthwise_1/depthwise/ReadVariableOp", "shape": [3, 3, 88, 1], "dtype": "float32"}, {"name": "StatefulPartitionedCall/functional_1_1/MobileNetV3Small_1/expanded_conv_2_depthwise_bn_1/batchnorm/mul", "shape": [88], "dtype": "float32"}, {"name": "StatefulPartitionedCall/functional_1_1/MobileNetV3Small_1/expanded_conv_2_depthwise_bn_1/batchnorm/sub", "shape": [88], "dtype": "float32"}, {"name": "StatefulPartitionedCall/functional_1_1/MobileNetV3Small_1/expanded_conv_2_project_1/convolution/merged_input", "shape": [1, 1, 88, 24], "dtype": "float32"}, {"name": "StatefulPartitionedCall/functional_1_1/MobileNetV3Small_1/expanded_conv_3_expand_1/convolution/merged_input", "shape": [1, 1, 24, 96], "dtype": "float32"}, {"name": "StatefulPartitionedCall/functional_1_1/MobileNetV3Small_1/expanded_conv_3_expand_bn_1/batchnorm/sub", "shape": [96], "dtype": "float32"}, {"name": "StatefulPartitionedCall/functional_1_1/MobileNetV3Small_1/activation_19_1/Const", "shape": [], "dtype": "float32"}, {"name": "StatefulPartitionedCall/functional_1_1/MobileNetV3Small_1/expanded_conv_3_depthwise_pad_1/Const", "shape": [4, 2], "dtype": "int32"}, {"name": "StatefulPartitionedCall/functional_1_1/MobileNetV3Small_1/expanded_conv_3_depthwise_1/depthwise/ReadVariableOp", "shape": [5, 5, 96, 1], "dtype": "float32"}, {"name": "StatefulPartitionedCall/functional_1_1/MobileNetV3Small_1/expanded_conv_3_depthwise_bn_1/batchnorm/mul", "shape": [96], "dtype": "float32"}, {"name": "StatefulPartitionedCall/functional_1_1/MobileNetV3Small_1/expanded_conv_3_depthwise_bn_1/batchnorm/sub", "shape": [96], "dtype": "float32"}, {"name": "StatefulPartitionedCall/functional_1_1/MobileNetV3Small_1/activation_20_1/Const", "shape": [], "dtype": "float32"}, {"name": "StatefulPartitionedCall/functional_1_1/MobileNetV3Small_1/expanded_conv_3_project_1/convolution/merged_input", "shape": [1, 1, 96, 40], "dtype": "float32"}, {"name": "StatefulPartitionedCall/functional_1_1/MobileNetV3Small_1/expanded_conv_3_project_bn_1/batchnorm/sub", "shape": [40], "dtype": "float32"}, {"name": "StatefulPartitionedCall/functional_1_1/MobileNetV3Small_1/expanded_conv_4_expand_1/convolution/merged_input", "shape": [1, 1, 40, 240], "dtype": "float32"}, {"name": "StatefulPartitionedCall/functional_1_1/MobileNetV3Small_1/expanded_conv_4_expand_bn_1/batchnorm/sub", "shape": [240], "dtype": "float32"}, {"name": "StatefulPartitionedCall/functional_1_1/MobileNetV3Small_1/activation_21_1/Const", "shape": [], "dtype": "float32"}, {"name": "StatefulPartitionedCall/functional_1_1/MobileNetV3Small_1/expanded_conv_4_depthwise_1/depthwise/ReadVariableOp", "shape": [5, 5, 240, 1], "dtype": "float32"}, {"name": "StatefulPartitionedCall/functional_1_1/MobileNetV3Small_1/expanded_conv_4_depthwise_bn_1/batchnorm/mul", "shape": [240], "dtype": "float32"}, {"name": "StatefulPartitionedCall/functional_1_1/MobileNetV3Small_1/expanded_conv_4_depthwise_bn_1/batchnorm/sub", "shape": [240], "dtype": "float32"}, {"name": "StatefulPartitionedCall/functional_1_1/MobileNetV3Small_1/activation_22_1/Const", "shape": [], "dtype": "float32"}, {"name": "StatefulPartitionedCall/functional_1_1/MobileNetV3Small_1/expanded_conv_4_project_1/convolution/merged_input", "shape": [1, 1, 240, 40], "dtype": "float32"}, {"name": "StatefulPartitionedCall/functional_1_1/MobileNetV3Small_1/expanded_conv_5_expand_1/convolution/merged_input", "shape": [1, 1, 40, 240], "dtype": "float32"}, {"name": "StatefulPartitionedCall/functional_1_1/MobileNetV3Small_1/expanded_conv_5_expand_bn_1/batchnorm/sub", "shape": [240], "dtype": "float32"}, {"name": "StatefulPartitionedCall/functional_1_1/MobileNetV3Small_1/activation_23_1/Const", "shape": [], "dtype": "float32"}, {"name": "StatefulPartitionedCall/functional_1_1/MobileNetV3Small_1/expanded_conv_5_depthwise_1/depthwise/ReadVariableOp", "shape": [5, 5, 240, 1], "dtype": "float32"}, {"name": "StatefulPartitionedCall/functional_1_1/MobileNetV3Small_1/expanded_conv_5_depthwise_bn_1/batchnorm/mul", "shape": [240], "dtype": "float32"}, {"name": "StatefulPartitionedCall/functional_1_1/MobileNetV3Small_1/expanded_conv_5_depthwise_bn_1/batchnorm/sub", "shape": [240], "dtype": "float32"}, {"name": "StatefulPartitionedCall/functional_1_1/MobileNetV3Small_1/activation_24_1/Const", "shape": [], "dtype": "float32"}, {"name": "StatefulPartitionedCall/functional_1_1/MobileNetV3Small_1/expanded_conv_5_project_1/convolution/merged_input", "shape": [1, 1, 240, 40], "dtype": "float32"}, {"name": "StatefulPartitionedCall/functional_1_1/MobileNetV3Small_1/expanded_conv_6_expand_1/convolution/merged_input", "shape": [1, 1, 40, 120], "dtype": "float32"}, {"name": "StatefulPartitionedCall/functional_1_1/MobileNetV3Small_1/expanded_conv_6_expand_bn_1/batchnorm/sub", "shape": [120], "dtype": "float32"}, {"name": "StatefulPartitionedCall/functional_1_1/MobileNetV3Small_1/activation_25_1/Const", "shape": [], "dtype": "float32"}, {"name": "StatefulPartitionedCall/functional_1_1/MobileNetV3Small_1/expanded_conv_6_depthwise_1/depthwise/ReadVariableOp", "shape": [5, 5, 120, 1], "dtype": "float32"}, {"name": "StatefulPartitionedCall/functional_1_1/MobileNetV3Small_1/expanded_conv_6_depthwise_bn_1/batchnorm/mul", "shape": [120], "dtype": "float32"}, {"name": "StatefulPartitionedCall/functional_1_1/MobileNetV3Small_1/expanded_conv_6_depthwise_bn_1/batchnorm/sub", "shape": [120], "dtype": "float32"}, {"name": "StatefulPartitionedCall/functional_1_1/MobileNetV3Small_1/activation_26_1/Const", "shape": [], "dtype": "float32"}, {"name": "StatefulPartitionedCall/functional_1_1/MobileNetV3Small_1/expanded_conv_6_project_1/convolution/merged_input", "shape": [1, 1, 120, 48], "dtype": "float32"}, {"name": "StatefulPartitionedCall/functional_1_1/MobileNetV3Small_1/expanded_conv_6_project_bn_1/batchnorm/sub", "shape": [48], "dtype": "float32"}, {"name": "StatefulPartitionedCall/functional_1_1/MobileNetV3Small_1/expanded_conv_7_expand_1/convolution/merged_input", "shape": [1, 1, 48, 144], "dtype": "float32"}, {"name": "StatefulPartitionedCall/functional_1_1/MobileNetV3Small_1/expanded_conv_7_expand_bn_1/batchnorm/sub", "shape": [144], "dtype": "float32"}, {"name": "StatefulPartitionedCall/functional_1_1/MobileNetV3Small_1/activation_27_1/Const", "shape": [], "dtype": "float32"}, {"name": "StatefulPartitionedCall/functional_1_1/MobileNetV3Small_1/expanded_conv_7_depthwise_1/depthwise/ReadVariableOp", "shape": [5, 5, 144, 1], "dtype": "float32"}, {"name": "StatefulPartitionedCall/functional_1_1/MobileNetV3Small_1/expanded_conv_7_depthwise_bn_1/batchnorm/mul", "shape": [144], "dtype": "float32"}, {"name": "StatefulPartitionedCall/functional_1_1/MobileNetV3Small_1/expanded_conv_7_depthwise_bn_1/batchnorm/sub", "shape": [144], "dtype": "float32"}, {"name": "StatefulPartitionedCall/functional_1_1/MobileNetV3Small_1/activation_28_1/Const", "shape": [], "dtype": "float32"}, {"name": "StatefulPartitionedCall/functional_1_1/MobileNetV3Small_1/expanded_conv_7_project_1/convolution/merged_input", "shape": [1, 1, 144, 48], "dtype": "float32"}, {"name": "StatefulPartitionedCall/functional_1_1/MobileNetV3Small_1/expanded_conv_8_expand_1/convolution/merged_input", "shape": [1, 1, 48, 288], "dtype": "float32"}, {"name": "StatefulPartitionedCall/functional_1_1/MobileNetV3Small_1/expanded_conv_8_expand_bn_1/batchnorm/sub", "shape": [288], "dtype": "float32"}, {"name": "StatefulPartitionedCall/functional_1_1/MobileNetV3Small_1/activation_29_1/Const", "shape": [], "dtype": "float32"}, {"name": "StatefulPartitionedCall/functional_1_1/MobileNetV3Small_1/expanded_conv_8_depthwise_pad_1/Const", "shape": [4, 2], "dtype": "int32"}, {"name": "StatefulPartitionedCall/functional_1_1/MobileNetV3Small_1/expanded_conv_8_depthwise_1/depthwise/ReadVariableOp", "shape": [5, 5, 288, 1], "dtype": "float32"}, {"name": "StatefulPartitionedCall/functional_1_1/MobileNetV3Small_1/expanded_conv_8_depthwise_bn_1/batchnorm/mul", "shape": [288], "dtype": "float32"}, {"name": "StatefulPartitionedCall/functional_1_1/MobileNetV3Small_1/expanded_conv_8_depthwise_bn_1/batchnorm/sub", "shape": [288], "dtype": "float32"}, {"name": "StatefulPartitionedCall/functional_1_1/MobileNetV3Small_1/activation_30_1/Const", "shape": [], "dtype": "float32"}, {"name": "StatefulPartitionedCall/functional_1_1/MobileNetV3Small_1/expanded_conv_8_project_1/convolution/merged_input", "shape": [1, 1, 288, 96], "dtype": "float32"}, {"name": "StatefulPartitionedCall/functional_1_1/MobileNetV3Small_1/expanded_conv_8_project_bn_1/batchnorm/sub", "shape": [96], "dtype": "float32"}, {"name": "StatefulPartitionedCall/functional_1_1/MobileNetV3Small_1/expanded_conv_9_expand_1/convolution/merged_input", "shape": [1, 1, 96, 576], "dtype": "float32"}, {"name": "StatefulPartitionedCall/functional_1_1/MobileNetV3Small_1/expanded_conv_9_expand_bn_1/batchnorm/sub", "shape": [576], "dtype": "float32"}, {"name": "StatefulPartitionedCall/functional_1_1/MobileNetV3Small_1/activation_31_1/Const", "shape": [], "dtype": "float32"}, {"name": "StatefulPartitionedCall/functional_1_1/MobileNetV3Small_1/expanded_conv_9_depthwise_1/depthwise/ReadVariableOp", "shape": [5, 5, 576, 1], "dtype": "float32"}, {"name": "StatefulPartitionedCall/functional_1_1/MobileNetV3Small_1/expanded_conv_9_depthwise_bn_1/batchnorm/mul", "shape": [576], "dtype": "float32"}, {"name": "StatefulPartitionedCall/functional_1_1/MobileNetV3Small_1/expanded_conv_9_depthwise_bn_1/batchnorm/sub", "shape": [576], "dtype": "float32"}, {"name": "StatefulPartitionedCall/functional_1_1/MobileNetV3Small_1/activation_32_1/Const", "shape": [], "dtype": "float32"}, {"name": "StatefulPartitionedCall/functional_1_1/MobileNetV3Small_1/expanded_conv_9_project_1/convolution/merged_input", "shape": [1, 1, 576, 96], "dtype": "float32"}, {"name": "StatefulPartitionedCall/functional_1_1/MobileNetV3Small_1/expanded_conv_10_expand_1/convolution/merged_input", "shape": [1, 1, 96, 576], "dtype": "float32"}, {"name": "StatefulPartitionedCall/functional_1_1/MobileNetV3Small_1/expanded_conv_10_expand_bn_1/batchnorm/sub", "shape": [576], "dtype": "float32"}, {"name": "StatefulPartitionedCall/functional_1_1/MobileNetV3Small_1/activation_33_1/Const", "shape": [], "dtype": "float32"}, {"name": "StatefulPartitionedCall/functional_1_1/MobileNetV3Small_1/expanded_conv_10_depthwise_1/depthwise/ReadVariableOp", "shape": [5, 5, 576, 1], "dtype": "float32"}, {"name": "StatefulPartitionedCall/functional_1_1/MobileNetV3Small_1/expanded_conv_10_depthwise_bn_1/batchnorm/mul", "shape": [576], "dtype": "float32"}, {"name": "StatefulPartitionedCall/functional_1_1/MobileNetV3Small_1/expanded_conv_10_depthwise_bn_1/batchnorm/sub", "shape": [576], "dtype": "float32"}, {"name": "StatefulPartitionedCall/functional_1_1/MobileNetV3Small_1/activation_34_1/Const", "shape": [], "dtype": "float32"}, {"name": "StatefulPartitionedCall/functional_1_1/MobileNetV3Small_1/expanded_conv_10_project_1/convolution/merged_input", "shape": [1, 1, 576, 96], "dtype": "float32"}, {"name": "StatefulPartitionedCall/functional_1_1/MobileNetV3Small_1/conv_1_2/convolution/merged_input", "shape": [1, 1, 96, 576], "dtype": "float32"}, {"name": "StatefulPartitionedCall/functional_1_1/MobileNetV3Small_1/conv_1_bn_1/batchnorm/sub", "shape": [576], "dtype": "float32"}, {"name": "StatefulPartitionedCall/functional_1_1/MobileNetV3Small_1/activation_35_1/Const", "shape": [], "dtype": "float32"}, {"name": "StatefulPartitionedCall/functional_1_1/global_average_pooling2d_1_1/Mean/reduction_indices", "shape": [2], "dtype": "int32"}, {"name": "StatefulPartitionedCall/functional_1_1/batch_normalization_1_1/batchnorm/mul", "shape": [576], "dtype": "float32"}, {"name": "StatefulPartitionedCall/functional_1_1/batch_normalization_1_1/batchnorm/sub", "shape": [576], "dtype": "float32"}, {"name": "StatefulPartitionedCall/functional_1_1/dense_2_1/Cast/ReadVariableOp", "shape": [576, 128], "dtype": "float32"}, {"name": "StatefulPartitionedCall/functional_1_1/dense_2_1/BiasAdd/ReadVariableOp", "shape": [128], "dtype": "float32"}, {"name": "StatefulPartitionedCall/functional_1_1/dense_3_1/Cast/ReadVariableOp", "shape": [128, 1], "dtype": "float32"}, {"name": "StatefulPartitionedCall/functional_1_1/dense_3_1/Add/ReadVariableOp", "shape": [1], "dtype": "float32"}]}]}